{"format": "graph-model", "generatedBy": "2.4.0", "convertedBy": "TensorFlow.js Converter v3.9.0", "signature": {"inputs": {"input_tensor": {"name": "input_tensor:0", "dtype": "DT_UINT8", "tensorShape": {"dim": [{"size": "1"}, {"size": "-1"}, {"size": "-1"}, {"size": "3"}]}}}, "outputs": {"Identity_1:0": {"name": "Identity_1:0", "dtype": "DT_FLOAT", "tensorShape": {"dim": [{"size": "1"}, {"size": "100"}]}}, "Identity_2:0": {"name": "Identity_2:0", "dtype": "DT_FLOAT", "tensorShape": {"dim": [{"size": "1"}, {"size": "100"}]}}, "detection_boxes": {"name": "Identity:0", "dtype": "DT_FLOAT", "tensorShape": {"dim": [{"size": "1"}, {"size": "100"}, {"size": "4"}]}}, "num_detections": {"name": "Identity_3:0", "dtype": "DT_FLOAT", "tensorShape": {"dim": [{"size": "1"}]}}}}, "modelTopology": {"node": [{"name": "ConstantFolding/StatefulPartitionedCall/ClipToWindow/unstack-folded-2", "op": "Const", "attr": {"value": {"tensor": {"dtype": "DT_FLOAT", "tensorShape": {}}}, "dtype": {"type": "DT_FLOAT"}}}, {"name": "ConstantFolding/StatefulPartitionedCall/ClipToWindow/unstack-folded-0", "op": "Const", "attr": {"dtype": {"type": "DT_FLOAT"}, "value": {"tensor": {"dtype": "DT_FLOAT", "tensorShape": {}}}}}, {"name": "StatefulPartitionedCall/ClipToWindow/split/split_dim", "op": "Const", "attr": {"dtype": {"type": "DT_INT32"}, "value": {"tensor": {"dtype": "DT_INT32", "tensorShape": {}}}}}, {"name": "StatefulPartitionedCall/ToNormalizedCoordinates/Scale/split/split_dim", "op": "Const", "attr": {"dtype": {"type": "DT_INT32"}, "value": {"tensor": {"dtype": "DT_INT32", "tensorShape": {}}}}}, {"name": "StatefulPartitionedCall/ToNormalizedCoordinates/Scale/concat/axis", "op": "Const", "attr": {"value": {"tensor": {"dtype": "DT_INT32", "tensorShape": {}}}, "dtype": {"type": "DT_INT32"}}}, {"name": "ConstantFolding/StatefulPartitionedCall/ClipToWindow/unstack-folded-3", "op": "Const", "attr": {"dtype": {"type": "DT_FLOAT"}, "value": {"tensor": {"dtype": "DT_FLOAT", "tensorShape": {}}}}}, {"name": "ConstantFolding/StatefulPartitionedCall/ClipToWindow/unstack-folded-1", "op": "Const", "attr": {"value": {"tensor": {"dtype": "DT_FLOAT", "tensorShape": {}}}, "dtype": {"type": "DT_FLOAT"}}}, {"name": "StatefulPartitionedCall/ClipToWindow/concat/axis", "op": "Const", "attr": {"value": {"tensor": {"dtype": "DT_INT32", "tensorShape": {}}}, "dtype": {"type": "DT_INT32"}}}, {"name": "StatefulPartitionedCall/mod_1/y", "op": "Const", "attr": {"dtype": {"type": "DT_INT32"}, "value": {"tensor": {"dtype": "DT_INT32", "tensorShape": {}}}}}, {"name": "StatefulPartitionedCall/add_7/y", "op": "Const", "attr": {"dtype": {"type": "DT_FLOAT"}, "value": {"tensor": {"dtype": "DT_FLOAT", "tensorShape": {}}}}}, {"name": "StatefulPartitionedCall/Greater/y", "op": "Const", "attr": {"dtype": {"type": "DT_FLOAT"}, "value": {"tensor": {"dtype": "DT_FLOAT", "tensorShape": {}}}}}, {"name": "StatefulPartitionedCall/Sum/reduction_indices", "op": "Const", "attr": {"value": {"tensor": {"dtype": "DT_INT32", "tensorShape": {}}}, "dtype": {"type": "DT_INT32"}}}, {"name": "StatefulPartitionedCall/Assert_3/Condition", "op": "Const", "attr": {"dtype": {"type": "DT_BOOL"}, "value": {"tensor": {"dtype": "DT_BOOL", "tensorShape": {}}}}}, {"name": "StatefulPartitionedCall/Assert_2/Condition", "op": "Const", "attr": {"value": {"tensor": {"dtype": "DT_BOOL", "tensorShape": {}}}, "dtype": {"type": "DT_BOOL"}}}, {"name": "StatefulPartitionedCall/Assert_1/Condition", "op": "Const", "attr": {"value": {"tensor": {"dtype": "DT_BOOL", "tensorShape": {}}}, "dtype": {"type": "DT_BOOL"}}}, {"name": "StatefulPartitionedCall/Assert/AssertGuard/pivot_t/_374", "op": "Const", "attr": {"dtype": {"type": "DT_BOOL"}, "value": {"tensor": {"dtype": "DT_BOOL", "tensorShape": {}}}}}, {"name": "StatefulPartitionedCall/Assert/Condition", "op": "Const", "attr": {"dtype": {"type": "DT_BOOL"}, "value": {"tensor": {"dtype": "DT_BOOL", "tensorShape": {}}}}}, {"name": "StatefulPartitionedCall/Scale/Cast", "op": "Const", "attr": {"value": {"tensor": {"dtype": "DT_FLOAT", "tensorShape": {}}}, "dtype": {"type": "DT_FLOAT"}}}, {"name": "StatefulPartitionedCall/Scale/Cast_1", "op": "Const", "attr": {"dtype": {"type": "DT_FLOAT"}, "value": {"tensor": {"dtype": "DT_FLOAT", "tensorShape": {}}}}}, {"name": "StatefulPartitionedCall/Scale/split/split_dim", "op": "Const", "attr": {"value": {"tensor": {"dtype": "DT_INT32", "tensorShape": {}}}, "dtype": {"type": "DT_INT32"}}}, {"name": "ConstantFolding/StatefulPartitionedCall/truediv_1_recip", "op": "Const", "attr": {"value": {"tensor": {"dtype": "DT_FLOAT", "tensorShape": {}}}, "dtype": {"type": "DT_FLOAT"}}}, {"name": "ConstantFolding/StatefulPartitionedCall/truediv_2_recip", "op": "Const", "attr": {"dtype": {"type": "DT_FLOAT"}, "value": {"tensor": {"dtype": "DT_FLOAT", "tensorShape": {}}}}}, {"name": "ConstantFolding/StatefulPartitionedCall/truediv_3_recip", "op": "Const", "attr": {"dtype": {"type": "DT_FLOAT"}, "value": {"tensor": {"dtype": "DT_FLOAT", "tensorShape": {}}}}}, {"name": "unknown_351", "op": "Const", "attr": {"value": {"tensor": {"dtype": "DT_FLOAT", "tensorShape": {"dim": [{"size": "3"}, {"size": "3"}, {"size": "64"}, {"size": "256"}]}}}, "dtype": {"type": "DT_FLOAT"}}}, {"name": "unknown_352", "op": "Const", "attr": {"value": {"tensor": {"dtype": "DT_FLOAT", "tensorShape": {"dim": [{"size": "256"}]}}}, "dtype": {"type": "DT_FLOAT"}}}, {"name": "unknown_353", "op": "Const", "attr": {"value": {"tensor": {"dtype": "DT_FLOAT", "tensorShape": {"dim": [{"size": "1"}, {"size": "1"}, {"size": "256"}, {"size": "2"}]}}}, "dtype": {"type": "DT_FLOAT"}}}, {"name": "unknown_354", "op": "Const", "attr": {"dtype": {"type": "DT_FLOAT"}, "value": {"tensor": {"dtype": "DT_FLOAT", "tensorShape": {"dim": [{"size": "2"}]}}}}}, {"name": "StatefulPartitionedCall/Reshape_4/shape", "op": "Const", "attr": {"value": {"tensor": {"dtype": "DT_INT32", "tensorShape": {"dim": [{"size": "3"}]}}}, "dtype": {"type": "DT_INT32"}}}, {"name": "StatefulPartitionedCall/GatherV2_1/axis", "op": "Const", "attr": {"dtype": {"type": "DT_INT32"}, "value": {"tensor": {"dtype": "DT_INT32", "tensorShape": {}}}}}, {"name": "unknown_347", "op": "Const", "attr": {"dtype": {"type": "DT_FLOAT"}, "value": {"tensor": {"dtype": "DT_FLOAT", "tensorShape": {"dim": [{"size": "3"}, {"size": "3"}, {"size": "64"}, {"size": "256"}]}}}}}, {"name": "unknown_348", "op": "Const", "attr": {"dtype": {"type": "DT_FLOAT"}, "value": {"tensor": {"dtype": "DT_FLOAT", "tensorShape": {"dim": [{"size": "256"}]}}}}}, {"name": "unknown_349", "op": "Const", "attr": {"value": {"tensor": {"dtype": "DT_FLOAT", "tensorShape": {"dim": [{"size": "1"}, {"size": "1"}, {"size": "256"}, {"size": "2"}]}}}, "dtype": {"type": "DT_FLOAT"}}}, {"name": "unknown_350", "op": "Const", "attr": {"value": {"tensor": {"dtype": "DT_FLOAT", "tensorShape": {"dim": [{"size": "2"}]}}}, "dtype": {"type": "DT_FLOAT"}}}, {"name": "StatefulPartitionedCall/Reshape_3/shape", "op": "Const", "attr": {"dtype": {"type": "DT_INT32"}, "value": {"tensor": {"dtype": "DT_INT32", "tensorShape": {"dim": [{"size": "3"}]}}}}}, {"name": "StatefulPartitionedCall/floordiv/y", "op": "Const", "attr": {"value": {"tensor": {"dtype": "DT_INT32", "tensorShape": {}}}, "dtype": {"type": "DT_INT32"}}}, {"name": "StatefulPartitionedCall/floordiv_1/y", "op": "Const", "attr": {"value": {"tensor": {"dtype": "DT_INT32", "tensorShape": {}}}, "dtype": {"type": "DT_INT32"}}}, {"name": "StatefulPartitionedCall/mul_1/y", "op": "Const", "attr": {"dtype": {"type": "DT_INT32"}, "value": {"tensor": {"dtype": "DT_INT32", "tensorShape": {}}}}}, {"name": "unknown_317", "op": "Const", "attr": {"value": {"tensor": {"dtype": "DT_FLOAT", "tensorShape": {"dim": [{"size": "1"}, {"size": "1"}, {"size": "2048"}, {"size": "256"}]}}}, "dtype": {"type": "DT_FLOAT"}}}, {"name": "unknown_318", "op": "Const", "attr": {"value": {"tensor": {"dtype": "DT_FLOAT", "tensorShape": {"dim": [{"size": "256"}]}}}, "dtype": {"type": "DT_FLOAT"}}}, {"name": "StatefulPartitionedCall/center_net_resnet_v1fpn_feature_extractor/functional_3/up_sampling2d/mul", "op": "Const", "attr": {"dtype": {"type": "DT_INT32"}, "value": {"tensor": {"dtype": "DT_INT32", "tensorShape": {"dim": [{"size": "2"}]}}}}}, {"name": "unknown_319", "op": "Const", "attr": {"value": {"tensor": {"dtype": "DT_FLOAT", "tensorShape": {"dim": [{"size": "1"}, {"size": "1"}, {"size": "1024"}, {"size": "256"}]}}}, "dtype": {"type": "DT_FLOAT"}}}, {"name": "unknown_320", "op": "Const", "attr": {"dtype": {"type": "DT_FLOAT"}, "value": {"tensor": {"dtype": "DT_FLOAT", "tensorShape": {"dim": [{"size": "256"}]}}}}}, {"name": "StatefulPartitionedCall/center_net_resnet_v1fpn_feature_extractor/functional_3/up_sampling2d_1/mul", "op": "Const", "attr": {"value": {"tensor": {"dtype": "DT_INT32", "tensorShape": {"dim": [{"size": "2"}]}}}, "dtype": {"type": "DT_INT32"}}}, {"name": "unknown_327", "op": "Const", "attr": {"value": {"tensor": {"dtype": "DT_FLOAT", "tensorShape": {"dim": [{"size": "1"}, {"size": "1"}, {"size": "512"}, {"size": "128"}]}}}, "dtype": {"type": "DT_FLOAT"}}}, {"name": "unknown_328", "op": "Const", "attr": {"dtype": {"type": "DT_FLOAT"}, "value": {"tensor": {"dtype": "DT_FLOAT", "tensorShape": {"dim": [{"size": "128"}]}}}}}, {"name": "StatefulPartitionedCall/center_net_resnet_v1fpn_feature_extractor/functional_3/up_sampling2d_2/mul", "op": "Const", "attr": {"value": {"tensor": {"dtype": "DT_INT32", "tensorShape": {"dim": [{"size": "2"}]}}}, "dtype": {"type": "DT_INT32"}}}, {"name": "StatefulPartitionedCall/ResizeToRange/Pad/paddings/0/0", "op": "Const", "attr": {"dtype": {"type": "DT_INT32"}, "value": {"tensor": {"dtype": "DT_INT32", "tensorShape": {}}}}}, {"name": "StatefulPartitionedCall/ResizeToRange/sub/x", "op": "Const", "attr": {"dtype": {"type": "DT_INT32"}, "value": {"tensor": {"dtype": "DT_INT32", "tensorShape": {}}}}}, {"name": "StatefulPartitionedCall/ResizeToRange/strided_slice_2/stack", "op": "Const", "attr": {"dtype": {"type": "DT_INT32"}, "value": {"tensor": {"dtype": "DT_INT32", "tensorShape": {"dim": [{"size": "1"}]}}}}}, {"name": "StatefulPartitionedCall/ResizeToRange/strided_slice_2/stack_1", "op": "Const", "attr": {"dtype": {"type": "DT_INT32"}, "value": {"tensor": {"dtype": "DT_INT32", "tensorShape": {"dim": [{"size": "1"}]}}}}}, {"name": "StatefulPartitionedCall/ResizeToRange/strided_slice_2/stack_2", "op": "Const", "attr": {"value": {"tensor": {"dtype": "DT_INT32", "tensorShape": {"dim": [{"size": "1"}]}}}, "dtype": {"type": "DT_INT32"}}}, {"name": "StatefulPartitionedCall/ResizeToRange/Pad/paddings/1/0", "op": "Const", "attr": {"value": {"tensor": {"dtype": "DT_INT32", "tensorShape": {}}}, "dtype": {"type": "DT_INT32"}}}, {"name": "StatefulPartitionedCall/ResizeToRange/sub_1/x", "op": "Const", "attr": {"value": {"tensor": {"dtype": "DT_INT32", "tensorShape": {}}}, "dtype": {"type": "DT_INT32"}}}, {"name": "StatefulPartitionedCall/ResizeToRange/strided_slice_3/stack", "op": "Const", "attr": {"value": {"tensor": {"dtype": "DT_INT32", "tensorShape": {"dim": [{"size": "1"}]}}}, "dtype": {"type": "DT_INT32"}}}, {"name": "StatefulPartitionedCall/ResizeToRange/strided_slice_3/stack_1", "op": "Const", "attr": {"dtype": {"type": "DT_INT32"}, "value": {"tensor": {"dtype": "DT_INT32", "tensorShape": {"dim": [{"size": "1"}]}}}}}, {"name": "StatefulPartitionedCall/ResizeToRange/strided_slice_3/stack_2", "op": "Const", "attr": {"value": {"tensor": {"dtype": "DT_INT32", "tensorShape": {"dim": [{"size": "1"}]}}}, "dtype": {"type": "DT_INT32"}}}, {"name": "StatefulPartitionedCall/ResizeToRange/Pad_1/paddings/0/0", "op": "Const", "attr": {"dtype": {"type": "DT_INT32"}, "value": {"tensor": {"dtype": "DT_INT32", "tensorShape": {}}}}}, {"name": "StatefulPartitionedCall/ResizeToRange/sub_2/x", "op": "Const", "attr": {"value": {"tensor": {"dtype": "DT_INT32", "tensorShape": {}}}, "dtype": {"type": "DT_INT32"}}}, {"name": "StatefulPartitionedCall/ResizeToRange/strided_slice_4/stack", "op": "Const", "attr": {"value": {"tensor": {"dtype": "DT_INT32", "tensorShape": {"dim": [{"size": "1"}]}}}, "dtype": {"type": "DT_INT32"}}}, {"name": "StatefulPartitionedCall/ResizeToRange/strided_slice_4/stack_1", "op": "Const", "attr": {"dtype": {"type": "DT_INT32"}, "value": {"tensor": {"dtype": "DT_INT32", "tensorShape": {"dim": [{"size": "1"}]}}}}}, {"name": "StatefulPartitionedCall/ResizeToRange/strided_slice_4/stack_2", "op": "Const", "attr": {"value": {"tensor": {"dtype": "DT_INT32", "tensorShape": {"dim": [{"size": "1"}]}}}, "dtype": {"type": "DT_INT32"}}}, {"name": "StatefulPartitionedCall/ResizeToRange/Pad_1/paddings/1/0", "op": "Const", "attr": {"value": {"tensor": {"dtype": "DT_INT32", "tensorShape": {}}}, "dtype": {"type": "DT_INT32"}}}, {"name": "StatefulPartitionedCall/ResizeToRange/sub_3/x", "op": "Const", "attr": {"value": {"tensor": {"dtype": "DT_INT32", "tensorShape": {}}}, "dtype": {"type": "DT_INT32"}}}, {"name": "StatefulPartitionedCall/ResizeToRange/strided_slice_5/stack", "op": "Const", "attr": {"dtype": {"type": "DT_INT32"}, "value": {"tensor": {"dtype": "DT_INT32", "tensorShape": {"dim": [{"size": "1"}]}}}}}, {"name": "StatefulPartitionedCall/ResizeToRange/strided_slice_5/stack_1", "op": "Const", "attr": {"value": {"tensor": {"dtype": "DT_INT32", "tensorShape": {"dim": [{"size": "1"}]}}}, "dtype": {"type": "DT_INT32"}}}, {"name": "StatefulPartitionedCall/ResizeToRange/strided_slice_5/stack_2", "op": "Const", "attr": {"dtype": {"type": "DT_INT32"}, "value": {"tensor": {"dtype": "DT_INT32", "tensorShape": {"dim": [{"size": "1"}]}}}}}, {"name": "StatefulPartitionedCall/ResizeToRange/Pad_2/paddings/0/0", "op": "Const", "attr": {"value": {"tensor": {"dtype": "DT_INT32", "tensorShape": {}}}, "dtype": {"type": "DT_INT32"}}}, {"name": "StatefulPartitionedCall/ResizeToRange/sub_4/x", "op": "Const", "attr": {"dtype": {"type": "DT_INT32"}, "value": {"tensor": {"dtype": "DT_INT32", "tensorShape": {}}}}}, {"name": "StatefulPartitionedCall/ResizeToRange/strided_slice_6/stack", "op": "Const", "attr": {"dtype": {"type": "DT_INT32"}, "value": {"tensor": {"dtype": "DT_INT32", "tensorShape": {"dim": [{"size": "1"}]}}}}}, {"name": "StatefulPartitionedCall/ResizeToRange/strided_slice_6/stack_1", "op": "Const", "attr": {"value": {"tensor": {"dtype": "DT_INT32", "tensorShape": {"dim": [{"size": "1"}]}}}, "dtype": {"type": "DT_INT32"}}}, {"name": "StatefulPartitionedCall/ResizeToRange/strided_slice_6/stack_2", "op": "Const", "attr": {"dtype": {"type": "DT_INT32"}, "value": {"tensor": {"dtype": "DT_INT32", "tensorShape": {"dim": [{"size": "1"}]}}}}}, {"name": "StatefulPartitionedCall/ResizeToRange/Pad_2/paddings/1/0", "op": "Const", "attr": {"dtype": {"type": "DT_INT32"}, "value": {"tensor": {"dtype": "DT_INT32", "tensorShape": {}}}}}, {"name": "StatefulPartitionedCall/ResizeToRange/sub_5/x", "op": "Const", "attr": {"value": {"tensor": {"dtype": "DT_INT32", "tensorShape": {}}}, "dtype": {"type": "DT_INT32"}}}, {"name": "StatefulPartitionedCall/ResizeToRange/strided_slice/stack", "op": "Const", "attr": {"value": {"tensor": {"dtype": "DT_INT32", "tensorShape": {"dim": [{"size": "1"}]}}}, "dtype": {"type": "DT_INT32"}}}, {"name": "StatefulPartitionedCall/ResizeToRange/strided_slice/stack_1", "op": "Const", "attr": {"dtype": {"type": "DT_INT32"}, "value": {"tensor": {"dtype": "DT_INT32", "tensorShape": {"dim": [{"size": "1"}]}}}}}, {"name": "StatefulPartitionedCall/ResizeToRange/strided_slice/stack_2", "op": "Const", "attr": {"dtype": {"type": "DT_INT32"}, "value": {"tensor": {"dtype": "DT_INT32", "tensorShape": {"dim": [{"size": "1"}]}}}}}, {"name": "StatefulPartitionedCall/ResizeToRange/strided_slice_1/stack", "op": "Const", "attr": {"dtype": {"type": "DT_INT32"}, "value": {"tensor": {"dtype": "DT_INT32", "tensorShape": {"dim": [{"size": "1"}]}}}}}, {"name": "StatefulPartitionedCall/ResizeToRange/strided_slice_1/stack_1", "op": "Const", "attr": {"dtype": {"type": "DT_INT32"}, "value": {"tensor": {"dtype": "DT_INT32", "tensorShape": {"dim": [{"size": "1"}]}}}}}, {"name": "StatefulPartitionedCall/ResizeToRange/strided_slice_1/stack_2", "op": "Const", "attr": {"value": {"tensor": {"dtype": "DT_INT32", "tensorShape": {"dim": [{"size": "1"}]}}}, "dtype": {"type": "DT_INT32"}}}, {"name": "StatefulPartitionedCall/ResizeToRange/strided_slice_7/stack", "op": "Const", "attr": {"dtype": {"type": "DT_INT32"}, "value": {"tensor": {"dtype": "DT_INT32", "tensorShape": {"dim": [{"size": "1"}]}}}}}, {"name": "StatefulPartitionedCall/ResizeToRange/strided_slice_7/stack_1", "op": "Const", "attr": {"dtype": {"type": "DT_INT32"}, "value": {"tensor": {"dtype": "DT_INT32", "tensorShape": {"dim": [{"size": "1"}]}}}}}, {"name": "StatefulPartitionedCall/ResizeToRange/strided_slice_7/stack_2", "op": "Const", "attr": {"dtype": {"type": "DT_INT32"}, "value": {"tensor": {"dtype": "DT_INT32", "tensorShape": {"dim": [{"size": "1"}]}}}}}, {"name": "StatefulPartitionedCall/strided_slice/stack", "op": "Const", "attr": {"value": {"tensor": {"dtype": "DT_INT32", "tensorShape": {"dim": [{"size": "2"}]}}}, "dtype": {"type": "DT_INT32"}}}, {"name": "StatefulPartitionedCall/strided_slice/stack_1", "op": "Const", "attr": {"dtype": {"type": "DT_INT32"}, "value": {"tensor": {"dtype": "DT_INT32", "tensorShape": {"dim": [{"size": "2"}]}}}}}, {"name": "StatefulPartitionedCall/strided_slice/stack_2", "op": "Const", "attr": {"dtype": {"type": "DT_INT32"}, "value": {"tensor": {"dtype": "DT_INT32", "tensorShape": {"dim": [{"size": "2"}]}}}}}, {"name": "StatefulPartitionedCall/Const_2", "op": "Const", "attr": {"dtype": {"type": "DT_FLOAT"}, "value": {"tensor": {"dtype": "DT_FLOAT", "tensorShape": {"dim": [{"size": "3"}]}}}}}, {"name": "StatefulPartitionedCall/center_net_resnet_v1fpn_feature_extractor/functional_3/functional_1/conv1_pad/Pad/paddings", "op": "Const", "attr": {"dtype": {"type": "DT_INT32"}, "value": {"tensor": {"dtype": "DT_INT32", "tensorShape": {"dim": [{"size": "4"}, {"size": "2"}]}}}}}, {"name": "StatefulPartitionedCall/center_net_resnet_v1fpn_feature_extractor/functional_3/functional_1/pool1_pad/Pad/paddings", "op": "Const", "attr": {"dtype": {"type": "DT_INT32"}, "value": {"tensor": {"dtype": "DT_INT32", "tensorShape": {"dim": [{"size": "4"}, {"size": "2"}]}}}}}, {"name": "unknown_335", "op": "Const", "attr": {"dtype": {"type": "DT_FLOAT"}, "value": {"tensor": {"dtype": "DT_FLOAT", "tensorShape": {"dim": [{"size": "1"}, {"size": "1"}, {"size": "256"}, {"size": "64"}]}}}}}, {"name": "unknown_336", "op": "Const", "attr": {"value": {"tensor": {"dtype": "DT_FLOAT", "tensorShape": {"dim": [{"size": "64"}]}}}, "dtype": {"type": "DT_FLOAT"}}}, {"name": "unknown_343", "op": "Const", "attr": {"dtype": {"type": "DT_FLOAT"}, "value": {"tensor": {"dtype": "DT_FLOAT", "tensorShape": {"dim": [{"size": "3"}, {"size": "3"}, {"size": "64"}, {"size": "256"}]}}}}}, {"name": "unknown_344", "op": "Const", "attr": {"dtype": {"type": "DT_FLOAT"}, "value": {"tensor": {"dtype": "DT_FLOAT", "tensorShape": {"dim": [{"size": "256"}]}}}}}, {"name": "unknown_345", "op": "Const", "attr": {"value": {"tensor": {"dtype": "DT_FLOAT", "tensorShape": {"dim": [{"size": "1"}, {"size": "1"}, {"size": "256"}, {"size": "90"}]}}}, "dtype": {"type": "DT_FLOAT"}}}, {"name": "unknown_346", "op": "Const", "attr": {"dtype": {"type": "DT_FLOAT"}, "value": {"tensor": {"dtype": "DT_FLOAT", "tensorShape": {"dim": [{"size": "90"}]}}}}}, {"name": "StatefulPartitionedCall/Less/y", "op": "Const", "attr": {"dtype": {"type": "DT_FLOAT"}, "value": {"tensor": {"dtype": "DT_FLOAT", "tensorShape": {}}}}}, {"name": "StatefulPartitionedCall/Reshape_2/shape", "op": "Const", "attr": {"value": {"tensor": {"dtype": "DT_INT32", "tensorShape": {"dim": [{"size": "2"}]}}}, "dtype": {"type": "DT_INT32"}}}, {"name": "StatefulPartitionedCall/TopKV2/k", "op": "Const", "attr": {"dtype": {"type": "DT_INT32"}, "value": {"tensor": {"dtype": "DT_INT32", "tensorShape": {}}}}}, {"name": "StatefulPartitionedCall/floordiv_2/y", "op": "Const", "attr": {"value": {"tensor": {"dtype": "DT_INT32", "tensorShape": {}}}, "dtype": {"type": "DT_INT32"}}}, {"name": "StatefulPartitionedCall/mod/y", "op": "Const", "attr": {"value": {"tensor": {"dtype": "DT_INT32", "tensorShape": {}}}, "dtype": {"type": "DT_INT32"}}}, {"name": "StatefulPartitionedCall/GatherV2/axis", "op": "Const", "attr": {"dtype": {"type": "DT_INT32"}, "value": {"tensor": {"dtype": "DT_INT32", "tensorShape": {}}}}}, {"name": "ConstantFolding/StatefulPartitionedCall/truediv_4_recip", "op": "Const", "attr": {"value": {"tensor": {"dtype": "DT_FLOAT", "tensorShape": {}}}, "dtype": {"type": "DT_FLOAT"}}}, {"name": "StatefulPartitionedCall/Scale/concat/axis", "op": "Const", "attr": {"value": {"tensor": {"dtype": "DT_INT32", "tensorShape": {}}}, "dtype": {"type": "DT_INT32"}}}, {"name": "StatefulPartitionedCall/ToNormalizedCoordinates/Const", "op": "Const", "attr": {"value": {"tensor": {"dtype": "DT_INT32", "tensorShape": {"dim": [{"size": "2"}]}}}, "dtype": {"type": "DT_INT32"}}}, {"name": "StatefulPartitionedCall/ToNormalizedCoordinates/Greater/y", "op": "Const", "attr": {"value": {"tensor": {"dtype": "DT_FLOAT", "tensorShape": {}}}, "dtype": {"type": "DT_FLOAT"}}}, {"name": "input_tensor", "op": "Placeholder", "attr": {"shape": {"shape": {"dim": [{"size": "1"}, {"size": "-1"}, {"size": "-1"}, {"size": "3"}]}}, "dtype": {"type": "DT_UINT8"}}}, {"name": "StatefulPartitionedCall/center_net_resnet_v1fpn_feature_extractor/functional_3/functional_1/conv1_conv/Conv2D_weights", "op": "Const", "attr": {"dtype": {"type": "DT_FLOAT"}, "value": {"tensor": {"dtype": "DT_FLOAT", "tensorShape": {"dim": [{"size": "7"}, {"size": "7"}, {"size": "3"}, {"size": "64"}]}}}}}, {"name": "StatefulPartitionedCall/center_net_resnet_v1fpn_feature_extractor/functional_3/functional_1/conv1_conv/Conv2D_bn_offset", "op": "Const", "attr": {"value": {"tensor": {"dtype": "DT_FLOAT", "tensorShape": {"dim": [{"size": "64"}]}}}, "dtype": {"type": "DT_FLOAT"}}}, {"name": "StatefulPartitionedCall/center_net_resnet_v1fpn_feature_extractor/functional_3/functional_1/conv2_block1_0_conv/Conv2D_weights", "op": "Const", "attr": {"dtype": {"type": "DT_FLOAT"}, "value": {"tensor": {"dtype": "DT_FLOAT", "tensorShape": {"dim": [{"size": "1"}, {"size": "1"}, {"size": "64"}, {"size": "256"}]}}}}}, {"name": "StatefulPartitionedCall/center_net_resnet_v1fpn_feature_extractor/functional_3/functional_1/conv2_block1_0_conv/Conv2D_bn_offset", "op": "Const", "attr": {"value": {"tensor": {"dtype": "DT_FLOAT", "tensorShape": {"dim": [{"size": "256"}]}}}, "dtype": {"type": "DT_FLOAT"}}}, {"name": "StatefulPartitionedCall/center_net_resnet_v1fpn_feature_extractor/functional_3/functional_1/conv2_block1_1_conv/Conv2D_weights", "op": "Const", "attr": {"value": {"tensor": {"dtype": "DT_FLOAT", "tensorShape": {"dim": [{"size": "1"}, {"size": "1"}, {"size": "64"}, {"size": "64"}]}}}, "dtype": {"type": "DT_FLOAT"}}}, {"name": "StatefulPartitionedCall/center_net_resnet_v1fpn_feature_extractor/functional_3/functional_1/conv2_block1_1_conv/Conv2D_bn_offset", "op": "Const", "attr": {"dtype": {"type": "DT_FLOAT"}, "value": {"tensor": {"dtype": "DT_FLOAT", "tensorShape": {"dim": [{"size": "64"}]}}}}}, {"name": "StatefulPartitionedCall/center_net_resnet_v1fpn_feature_extractor/functional_3/functional_1/conv2_block1_2_conv/Conv2D_weights", "op": "Const", "attr": {"value": {"tensor": {"dtype": "DT_FLOAT", "tensorShape": {"dim": [{"size": "3"}, {"size": "3"}, {"size": "64"}, {"size": "64"}]}}}, "dtype": {"type": "DT_FLOAT"}}}, {"name": "StatefulPartitionedCall/center_net_resnet_v1fpn_feature_extractor/functional_3/functional_1/conv2_block1_2_conv/Conv2D_bn_offset", "op": "Const", "attr": {"dtype": {"type": "DT_FLOAT"}, "value": {"tensor": {"dtype": "DT_FLOAT", "tensorShape": {"dim": [{"size": "64"}]}}}}}, {"name": "StatefulPartitionedCall/center_net_resnet_v1fpn_feature_extractor/functional_3/functional_1/conv2_block1_3_conv/Conv2D_weights", "op": "Const", "attr": {"value": {"tensor": {"dtype": "DT_FLOAT", "tensorShape": {"dim": [{"size": "1"}, {"size": "1"}, {"size": "64"}, {"size": "256"}]}}}, "dtype": {"type": "DT_FLOAT"}}}, {"name": "StatefulPartitionedCall/center_net_resnet_v1fpn_feature_extractor/functional_3/functional_1/conv2_block1_3_conv/Conv2D_bn_offset", "op": "Const", "attr": {"value": {"tensor": {"dtype": "DT_FLOAT", "tensorShape": {"dim": [{"size": "256"}]}}}, "dtype": {"type": "DT_FLOAT"}}}, {"name": "StatefulPartitionedCall/center_net_resnet_v1fpn_feature_extractor/functional_3/functional_1/conv2_block2_1_conv/Conv2D_weights", "op": "Const", "attr": {"value": {"tensor": {"dtype": "DT_FLOAT", "tensorShape": {"dim": [{"size": "1"}, {"size": "1"}, {"size": "256"}, {"size": "64"}]}}}, "dtype": {"type": "DT_FLOAT"}}}, {"name": "StatefulPartitionedCall/center_net_resnet_v1fpn_feature_extractor/functional_3/functional_1/conv2_block2_1_conv/Conv2D_bn_offset", "op": "Const", "attr": {"dtype": {"type": "DT_FLOAT"}, "value": {"tensor": {"dtype": "DT_FLOAT", "tensorShape": {"dim": [{"size": "64"}]}}}}}, {"name": "StatefulPartitionedCall/center_net_resnet_v1fpn_feature_extractor/functional_3/functional_1/conv2_block2_2_conv/Conv2D_weights", "op": "Const", "attr": {"dtype": {"type": "DT_FLOAT"}, "value": {"tensor": {"dtype": "DT_FLOAT", "tensorShape": {"dim": [{"size": "3"}, {"size": "3"}, {"size": "64"}, {"size": "64"}]}}}}}, {"name": "StatefulPartitionedCall/center_net_resnet_v1fpn_feature_extractor/functional_3/functional_1/conv2_block2_2_conv/Conv2D_bn_offset", "op": "Const", "attr": {"value": {"tensor": {"dtype": "DT_FLOAT", "tensorShape": {"dim": [{"size": "64"}]}}}, "dtype": {"type": "DT_FLOAT"}}}, {"name": "StatefulPartitionedCall/center_net_resnet_v1fpn_feature_extractor/functional_3/functional_1/conv2_block2_3_conv/Conv2D_weights", "op": "Const", "attr": {"value": {"tensor": {"dtype": "DT_FLOAT", "tensorShape": {"dim": [{"size": "1"}, {"size": "1"}, {"size": "64"}, {"size": "256"}]}}}, "dtype": {"type": "DT_FLOAT"}}}, {"name": "StatefulPartitionedCall/center_net_resnet_v1fpn_feature_extractor/functional_3/functional_1/conv2_block2_3_conv/Conv2D_bn_offset", "op": "Const", "attr": {"value": {"tensor": {"dtype": "DT_FLOAT", "tensorShape": {"dim": [{"size": "256"}]}}}, "dtype": {"type": "DT_FLOAT"}}}, {"name": "StatefulPartitionedCall/center_net_resnet_v1fpn_feature_extractor/functional_3/functional_1/conv2_block3_1_conv/Conv2D_weights", "op": "Const", "attr": {"dtype": {"type": "DT_FLOAT"}, "value": {"tensor": {"dtype": "DT_FLOAT", "tensorShape": {"dim": [{"size": "1"}, {"size": "1"}, {"size": "256"}, {"size": "64"}]}}}}}, {"name": "StatefulPartitionedCall/center_net_resnet_v1fpn_feature_extractor/functional_3/functional_1/conv2_block3_1_conv/Conv2D_bn_offset", "op": "Const", "attr": {"value": {"tensor": {"dtype": "DT_FLOAT", "tensorShape": {"dim": [{"size": "64"}]}}}, "dtype": {"type": "DT_FLOAT"}}}, {"name": "StatefulPartitionedCall/center_net_resnet_v1fpn_feature_extractor/functional_3/functional_1/conv2_block3_2_conv/Conv2D_weights", "op": "Const", "attr": {"value": {"tensor": {"dtype": "DT_FLOAT", "tensorShape": {"dim": [{"size": "3"}, {"size": "3"}, {"size": "64"}, {"size": "64"}]}}}, "dtype": {"type": "DT_FLOAT"}}}, {"name": "StatefulPartitionedCall/center_net_resnet_v1fpn_feature_extractor/functional_3/functional_1/conv2_block3_2_conv/Conv2D_bn_offset", "op": "Const", "attr": {"dtype": {"type": "DT_FLOAT"}, "value": {"tensor": {"dtype": "DT_FLOAT", "tensorShape": {"dim": [{"size": "64"}]}}}}}, {"name": "StatefulPartitionedCall/center_net_resnet_v1fpn_feature_extractor/functional_3/functional_1/conv2_block3_3_conv/Conv2D_weights", "op": "Const", "attr": {"dtype": {"type": "DT_FLOAT"}, "value": {"tensor": {"dtype": "DT_FLOAT", "tensorShape": {"dim": [{"size": "1"}, {"size": "1"}, {"size": "64"}, {"size": "256"}]}}}}}, {"name": "StatefulPartitionedCall/center_net_resnet_v1fpn_feature_extractor/functional_3/functional_1/conv2_block3_3_conv/Conv2D_bn_offset", "op": "Const", "attr": {"value": {"tensor": {"dtype": "DT_FLOAT", "tensorShape": {"dim": [{"size": "256"}]}}}, "dtype": {"type": "DT_FLOAT"}}}, {"name": "StatefulPartitionedCall/center_net_resnet_v1fpn_feature_extractor/functional_3/functional_1/conv3_block1_0_conv/Conv2D_weights", "op": "Const", "attr": {"dtype": {"type": "DT_FLOAT"}, "value": {"tensor": {"dtype": "DT_FLOAT", "tensorShape": {"dim": [{"size": "1"}, {"size": "1"}, {"size": "256"}, {"size": "512"}]}}}}}, {"name": "StatefulPartitionedCall/center_net_resnet_v1fpn_feature_extractor/functional_3/functional_1/conv3_block1_0_conv/Conv2D_bn_offset", "op": "Const", "attr": {"dtype": {"type": "DT_FLOAT"}, "value": {"tensor": {"dtype": "DT_FLOAT", "tensorShape": {"dim": [{"size": "512"}]}}}}}, {"name": "StatefulPartitionedCall/center_net_resnet_v1fpn_feature_extractor/functional_3/functional_1/conv3_block1_1_conv/Conv2D_weights", "op": "Const", "attr": {"value": {"tensor": {"dtype": "DT_FLOAT", "tensorShape": {"dim": [{"size": "1"}, {"size": "1"}, {"size": "256"}, {"size": "128"}]}}}, "dtype": {"type": "DT_FLOAT"}}}, {"name": "StatefulPartitionedCall/center_net_resnet_v1fpn_feature_extractor/functional_3/functional_1/conv3_block1_1_conv/Conv2D_bn_offset", "op": "Const", "attr": {"dtype": {"type": "DT_FLOAT"}, "value": {"tensor": {"dtype": "DT_FLOAT", "tensorShape": {"dim": [{"size": "128"}]}}}}}, {"name": "StatefulPartitionedCall/center_net_resnet_v1fpn_feature_extractor/functional_3/functional_1/conv3_block1_2_conv/Conv2D_weights", "op": "Const", "attr": {"dtype": {"type": "DT_FLOAT"}, "value": {"tensor": {"dtype": "DT_FLOAT", "tensorShape": {"dim": [{"size": "3"}, {"size": "3"}, {"size": "128"}, {"size": "128"}]}}}}}, {"name": "StatefulPartitionedCall/center_net_resnet_v1fpn_feature_extractor/functional_3/functional_1/conv3_block1_2_conv/Conv2D_bn_offset", "op": "Const", "attr": {"value": {"tensor": {"dtype": "DT_FLOAT", "tensorShape": {"dim": [{"size": "128"}]}}}, "dtype": {"type": "DT_FLOAT"}}}, {"name": "StatefulPartitionedCall/center_net_resnet_v1fpn_feature_extractor/functional_3/functional_1/conv3_block1_3_conv/Conv2D_weights", "op": "Const", "attr": {"dtype": {"type": "DT_FLOAT"}, "value": {"tensor": {"dtype": "DT_FLOAT", "tensorShape": {"dim": [{"size": "1"}, {"size": "1"}, {"size": "128"}, {"size": "512"}]}}}}}, {"name": "StatefulPartitionedCall/center_net_resnet_v1fpn_feature_extractor/functional_3/functional_1/conv3_block1_3_conv/Conv2D_bn_offset", "op": "Const", "attr": {"dtype": {"type": "DT_FLOAT"}, "value": {"tensor": {"dtype": "DT_FLOAT", "tensorShape": {"dim": [{"size": "512"}]}}}}}, {"name": "StatefulPartitionedCall/center_net_resnet_v1fpn_feature_extractor/functional_3/functional_1/conv3_block2_1_conv/Conv2D_weights", "op": "Const", "attr": {"dtype": {"type": "DT_FLOAT"}, "value": {"tensor": {"dtype": "DT_FLOAT", "tensorShape": {"dim": [{"size": "1"}, {"size": "1"}, {"size": "512"}, {"size": "128"}]}}}}}, {"name": "StatefulPartitionedCall/center_net_resnet_v1fpn_feature_extractor/functional_3/functional_1/conv3_block2_1_conv/Conv2D_bn_offset", "op": "Const", "attr": {"dtype": {"type": "DT_FLOAT"}, "value": {"tensor": {"dtype": "DT_FLOAT", "tensorShape": {"dim": [{"size": "128"}]}}}}}, {"name": "StatefulPartitionedCall/center_net_resnet_v1fpn_feature_extractor/functional_3/functional_1/conv3_block2_2_conv/Conv2D_weights", "op": "Const", "attr": {"dtype": {"type": "DT_FLOAT"}, "value": {"tensor": {"dtype": "DT_FLOAT", "tensorShape": {"dim": [{"size": "3"}, {"size": "3"}, {"size": "128"}, {"size": "128"}]}}}}}, {"name": "StatefulPartitionedCall/center_net_resnet_v1fpn_feature_extractor/functional_3/functional_1/conv3_block2_2_conv/Conv2D_bn_offset", "op": "Const", "attr": {"dtype": {"type": "DT_FLOAT"}, "value": {"tensor": {"dtype": "DT_FLOAT", "tensorShape": {"dim": [{"size": "128"}]}}}}}, {"name": "StatefulPartitionedCall/center_net_resnet_v1fpn_feature_extractor/functional_3/functional_1/conv3_block2_3_conv/Conv2D_weights", "op": "Const", "attr": {"dtype": {"type": "DT_FLOAT"}, "value": {"tensor": {"dtype": "DT_FLOAT", "tensorShape": {"dim": [{"size": "1"}, {"size": "1"}, {"size": "128"}, {"size": "512"}]}}}}}, {"name": "StatefulPartitionedCall/center_net_resnet_v1fpn_feature_extractor/functional_3/functional_1/conv3_block2_3_conv/Conv2D_bn_offset", "op": "Const", "attr": {"dtype": {"type": "DT_FLOAT"}, "value": {"tensor": {"dtype": "DT_FLOAT", "tensorShape": {"dim": [{"size": "512"}]}}}}}, {"name": "StatefulPartitionedCall/center_net_resnet_v1fpn_feature_extractor/functional_3/functional_1/conv3_block3_1_conv/Conv2D_weights", "op": "Const", "attr": {"dtype": {"type": "DT_FLOAT"}, "value": {"tensor": {"dtype": "DT_FLOAT", "tensorShape": {"dim": [{"size": "1"}, {"size": "1"}, {"size": "512"}, {"size": "128"}]}}}}}, {"name": "StatefulPartitionedCall/center_net_resnet_v1fpn_feature_extractor/functional_3/functional_1/conv3_block3_1_conv/Conv2D_bn_offset", "op": "Const", "attr": {"value": {"tensor": {"dtype": "DT_FLOAT", "tensorShape": {"dim": [{"size": "128"}]}}}, "dtype": {"type": "DT_FLOAT"}}}, {"name": "StatefulPartitionedCall/center_net_resnet_v1fpn_feature_extractor/functional_3/functional_1/conv3_block3_2_conv/Conv2D_weights", "op": "Const", "attr": {"dtype": {"type": "DT_FLOAT"}, "value": {"tensor": {"dtype": "DT_FLOAT", "tensorShape": {"dim": [{"size": "3"}, {"size": "3"}, {"size": "128"}, {"size": "128"}]}}}}}, {"name": "StatefulPartitionedCall/center_net_resnet_v1fpn_feature_extractor/functional_3/functional_1/conv3_block3_2_conv/Conv2D_bn_offset", "op": "Const", "attr": {"value": {"tensor": {"dtype": "DT_FLOAT", "tensorShape": {"dim": [{"size": "128"}]}}}, "dtype": {"type": "DT_FLOAT"}}}, {"name": "StatefulPartitionedCall/center_net_resnet_v1fpn_feature_extractor/functional_3/functional_1/conv3_block3_3_conv/Conv2D_weights", "op": "Const", "attr": {"dtype": {"type": "DT_FLOAT"}, "value": {"tensor": {"dtype": "DT_FLOAT", "tensorShape": {"dim": [{"size": "1"}, {"size": "1"}, {"size": "128"}, {"size": "512"}]}}}}}, {"name": "StatefulPartitionedCall/center_net_resnet_v1fpn_feature_extractor/functional_3/functional_1/conv3_block3_3_conv/Conv2D_bn_offset", "op": "Const", "attr": {"dtype": {"type": "DT_FLOAT"}, "value": {"tensor": {"dtype": "DT_FLOAT", "tensorShape": {"dim": [{"size": "512"}]}}}}}, {"name": "StatefulPartitionedCall/center_net_resnet_v1fpn_feature_extractor/functional_3/functional_1/conv3_block4_1_conv/Conv2D_weights", "op": "Const", "attr": {"dtype": {"type": "DT_FLOAT"}, "value": {"tensor": {"dtype": "DT_FLOAT", "tensorShape": {"dim": [{"size": "1"}, {"size": "1"}, {"size": "512"}, {"size": "128"}]}}}}}, {"name": "StatefulPartitionedCall/center_net_resnet_v1fpn_feature_extractor/functional_3/functional_1/conv3_block4_1_conv/Conv2D_bn_offset", "op": "Const", "attr": {"value": {"tensor": {"dtype": "DT_FLOAT", "tensorShape": {"dim": [{"size": "128"}]}}}, "dtype": {"type": "DT_FLOAT"}}}, {"name": "StatefulPartitionedCall/center_net_resnet_v1fpn_feature_extractor/functional_3/functional_1/conv3_block4_2_conv/Conv2D_weights", "op": "Const", "attr": {"value": {"tensor": {"dtype": "DT_FLOAT", "tensorShape": {"dim": [{"size": "3"}, {"size": "3"}, {"size": "128"}, {"size": "128"}]}}}, "dtype": {"type": "DT_FLOAT"}}}, {"name": "StatefulPartitionedCall/center_net_resnet_v1fpn_feature_extractor/functional_3/functional_1/conv3_block4_2_conv/Conv2D_bn_offset", "op": "Const", "attr": {"value": {"tensor": {"dtype": "DT_FLOAT", "tensorShape": {"dim": [{"size": "128"}]}}}, "dtype": {"type": "DT_FLOAT"}}}, {"name": "StatefulPartitionedCall/center_net_resnet_v1fpn_feature_extractor/functional_3/functional_1/conv3_block4_3_conv/Conv2D_weights", "op": "Const", "attr": {"value": {"tensor": {"dtype": "DT_FLOAT", "tensorShape": {"dim": [{"size": "1"}, {"size": "1"}, {"size": "128"}, {"size": "512"}]}}}, "dtype": {"type": "DT_FLOAT"}}}, {"name": "StatefulPartitionedCall/center_net_resnet_v1fpn_feature_extractor/functional_3/functional_1/conv3_block4_3_conv/Conv2D_bn_offset", "op": "Const", "attr": {"dtype": {"type": "DT_FLOAT"}, "value": {"tensor": {"dtype": "DT_FLOAT", "tensorShape": {"dim": [{"size": "512"}]}}}}}, {"name": "StatefulPartitionedCall/center_net_resnet_v1fpn_feature_extractor/functional_3/functional_1/conv4_block1_0_conv/Conv2D_weights", "op": "Const", "attr": {"dtype": {"type": "DT_FLOAT"}, "value": {"tensor": {"dtype": "DT_FLOAT", "tensorShape": {"dim": [{"size": "1"}, {"size": "1"}, {"size": "512"}, {"size": "1024"}]}}}}}, {"name": "StatefulPartitionedCall/center_net_resnet_v1fpn_feature_extractor/functional_3/functional_1/conv4_block1_0_conv/Conv2D_bn_offset", "op": "Const", "attr": {"dtype": {"type": "DT_FLOAT"}, "value": {"tensor": {"dtype": "DT_FLOAT", "tensorShape": {"dim": [{"size": "1024"}]}}}}}, {"name": "StatefulPartitionedCall/center_net_resnet_v1fpn_feature_extractor/functional_3/functional_1/conv4_block1_1_conv/Conv2D_weights", "op": "Const", "attr": {"dtype": {"type": "DT_FLOAT"}, "value": {"tensor": {"dtype": "DT_FLOAT", "tensorShape": {"dim": [{"size": "1"}, {"size": "1"}, {"size": "512"}, {"size": "256"}]}}}}}, {"name": "StatefulPartitionedCall/center_net_resnet_v1fpn_feature_extractor/functional_3/functional_1/conv4_block1_1_conv/Conv2D_bn_offset", "op": "Const", "attr": {"dtype": {"type": "DT_FLOAT"}, "value": {"tensor": {"dtype": "DT_FLOAT", "tensorShape": {"dim": [{"size": "256"}]}}}}}, {"name": "StatefulPartitionedCall/center_net_resnet_v1fpn_feature_extractor/functional_3/functional_1/conv4_block1_2_conv/Conv2D_weights", "op": "Const", "attr": {"dtype": {"type": "DT_FLOAT"}, "value": {"tensor": {"dtype": "DT_FLOAT", "tensorShape": {"dim": [{"size": "3"}, {"size": "3"}, {"size": "256"}, {"size": "256"}]}}}}}, {"name": "StatefulPartitionedCall/center_net_resnet_v1fpn_feature_extractor/functional_3/functional_1/conv4_block1_2_conv/Conv2D_bn_offset", "op": "Const", "attr": {"dtype": {"type": "DT_FLOAT"}, "value": {"tensor": {"dtype": "DT_FLOAT", "tensorShape": {"dim": [{"size": "256"}]}}}}}, {"name": "StatefulPartitionedCall/center_net_resnet_v1fpn_feature_extractor/functional_3/functional_1/conv4_block1_3_conv/Conv2D_weights", "op": "Const", "attr": {"value": {"tensor": {"dtype": "DT_FLOAT", "tensorShape": {"dim": [{"size": "1"}, {"size": "1"}, {"size": "256"}, {"size": "1024"}]}}}, "dtype": {"type": "DT_FLOAT"}}}, {"name": "StatefulPartitionedCall/center_net_resnet_v1fpn_feature_extractor/functional_3/functional_1/conv4_block1_3_conv/Conv2D_bn_offset", "op": "Const", "attr": {"dtype": {"type": "DT_FLOAT"}, "value": {"tensor": {"dtype": "DT_FLOAT", "tensorShape": {"dim": [{"size": "1024"}]}}}}}, {"name": "StatefulPartitionedCall/center_net_resnet_v1fpn_feature_extractor/functional_3/functional_1/conv4_block2_1_conv/Conv2D_weights", "op": "Const", "attr": {"dtype": {"type": "DT_FLOAT"}, "value": {"tensor": {"dtype": "DT_FLOAT", "tensorShape": {"dim": [{"size": "1"}, {"size": "1"}, {"size": "1024"}, {"size": "256"}]}}}}}, {"name": "StatefulPartitionedCall/center_net_resnet_v1fpn_feature_extractor/functional_3/functional_1/conv4_block2_1_conv/Conv2D_bn_offset", "op": "Const", "attr": {"dtype": {"type": "DT_FLOAT"}, "value": {"tensor": {"dtype": "DT_FLOAT", "tensorShape": {"dim": [{"size": "256"}]}}}}}, {"name": "StatefulPartitionedCall/center_net_resnet_v1fpn_feature_extractor/functional_3/functional_1/conv4_block2_2_conv/Conv2D_weights", "op": "Const", "attr": {"dtype": {"type": "DT_FLOAT"}, "value": {"tensor": {"dtype": "DT_FLOAT", "tensorShape": {"dim": [{"size": "3"}, {"size": "3"}, {"size": "256"}, {"size": "256"}]}}}}}, {"name": "StatefulPartitionedCall/center_net_resnet_v1fpn_feature_extractor/functional_3/functional_1/conv4_block2_2_conv/Conv2D_bn_offset", "op": "Const", "attr": {"dtype": {"type": "DT_FLOAT"}, "value": {"tensor": {"dtype": "DT_FLOAT", "tensorShape": {"dim": [{"size": "256"}]}}}}}, {"name": "StatefulPartitionedCall/center_net_resnet_v1fpn_feature_extractor/functional_3/functional_1/conv4_block2_3_conv/Conv2D_weights", "op": "Const", "attr": {"dtype": {"type": "DT_FLOAT"}, "value": {"tensor": {"dtype": "DT_FLOAT", "tensorShape": {"dim": [{"size": "1"}, {"size": "1"}, {"size": "256"}, {"size": "1024"}]}}}}}, {"name": "StatefulPartitionedCall/center_net_resnet_v1fpn_feature_extractor/functional_3/functional_1/conv4_block2_3_conv/Conv2D_bn_offset", "op": "Const", "attr": {"value": {"tensor": {"dtype": "DT_FLOAT", "tensorShape": {"dim": [{"size": "1024"}]}}}, "dtype": {"type": "DT_FLOAT"}}}, {"name": "StatefulPartitionedCall/center_net_resnet_v1fpn_feature_extractor/functional_3/functional_1/conv4_block3_1_conv/Conv2D_weights", "op": "Const", "attr": {"value": {"tensor": {"dtype": "DT_FLOAT", "tensorShape": {"dim": [{"size": "1"}, {"size": "1"}, {"size": "1024"}, {"size": "256"}]}}}, "dtype": {"type": "DT_FLOAT"}}}, {"name": "StatefulPartitionedCall/center_net_resnet_v1fpn_feature_extractor/functional_3/functional_1/conv4_block3_1_conv/Conv2D_bn_offset", "op": "Const", "attr": {"dtype": {"type": "DT_FLOAT"}, "value": {"tensor": {"dtype": "DT_FLOAT", "tensorShape": {"dim": [{"size": "256"}]}}}}}, {"name": "StatefulPartitionedCall/center_net_resnet_v1fpn_feature_extractor/functional_3/functional_1/conv4_block3_2_conv/Conv2D_weights", "op": "Const", "attr": {"dtype": {"type": "DT_FLOAT"}, "value": {"tensor": {"dtype": "DT_FLOAT", "tensorShape": {"dim": [{"size": "3"}, {"size": "3"}, {"size": "256"}, {"size": "256"}]}}}}}, {"name": "StatefulPartitionedCall/center_net_resnet_v1fpn_feature_extractor/functional_3/functional_1/conv4_block3_2_conv/Conv2D_bn_offset", "op": "Const", "attr": {"value": {"tensor": {"dtype": "DT_FLOAT", "tensorShape": {"dim": [{"size": "256"}]}}}, "dtype": {"type": "DT_FLOAT"}}}, {"name": "StatefulPartitionedCall/center_net_resnet_v1fpn_feature_extractor/functional_3/functional_1/conv4_block3_3_conv/Conv2D_weights", "op": "Const", "attr": {"value": {"tensor": {"dtype": "DT_FLOAT", "tensorShape": {"dim": [{"size": "1"}, {"size": "1"}, {"size": "256"}, {"size": "1024"}]}}}, "dtype": {"type": "DT_FLOAT"}}}, {"name": "StatefulPartitionedCall/center_net_resnet_v1fpn_feature_extractor/functional_3/functional_1/conv4_block3_3_conv/Conv2D_bn_offset", "op": "Const", "attr": {"value": {"tensor": {"dtype": "DT_FLOAT", "tensorShape": {"dim": [{"size": "1024"}]}}}, "dtype": {"type": "DT_FLOAT"}}}, {"name": "StatefulPartitionedCall/center_net_resnet_v1fpn_feature_extractor/functional_3/functional_1/conv4_block4_1_conv/Conv2D_weights", "op": "Const", "attr": {"value": {"tensor": {"dtype": "DT_FLOAT", "tensorShape": {"dim": [{"size": "1"}, {"size": "1"}, {"size": "1024"}, {"size": "256"}]}}}, "dtype": {"type": "DT_FLOAT"}}}, {"name": "StatefulPartitionedCall/center_net_resnet_v1fpn_feature_extractor/functional_3/functional_1/conv4_block4_1_conv/Conv2D_bn_offset", "op": "Const", "attr": {"value": {"tensor": {"dtype": "DT_FLOAT", "tensorShape": {"dim": [{"size": "256"}]}}}, "dtype": {"type": "DT_FLOAT"}}}, {"name": "StatefulPartitionedCall/center_net_resnet_v1fpn_feature_extractor/functional_3/functional_1/conv4_block4_2_conv/Conv2D_weights", "op": "Const", "attr": {"dtype": {"type": "DT_FLOAT"}, "value": {"tensor": {"dtype": "DT_FLOAT", "tensorShape": {"dim": [{"size": "3"}, {"size": "3"}, {"size": "256"}, {"size": "256"}]}}}}}, {"name": "StatefulPartitionedCall/center_net_resnet_v1fpn_feature_extractor/functional_3/functional_1/conv4_block4_2_conv/Conv2D_bn_offset", "op": "Const", "attr": {"dtype": {"type": "DT_FLOAT"}, "value": {"tensor": {"dtype": "DT_FLOAT", "tensorShape": {"dim": [{"size": "256"}]}}}}}, {"name": "StatefulPartitionedCall/center_net_resnet_v1fpn_feature_extractor/functional_3/functional_1/conv4_block4_3_conv/Conv2D_weights", "op": "Const", "attr": {"dtype": {"type": "DT_FLOAT"}, "value": {"tensor": {"dtype": "DT_FLOAT", "tensorShape": {"dim": [{"size": "1"}, {"size": "1"}, {"size": "256"}, {"size": "1024"}]}}}}}, {"name": "StatefulPartitionedCall/center_net_resnet_v1fpn_feature_extractor/functional_3/functional_1/conv4_block4_3_conv/Conv2D_bn_offset", "op": "Const", "attr": {"value": {"tensor": {"dtype": "DT_FLOAT", "tensorShape": {"dim": [{"size": "1024"}]}}}, "dtype": {"type": "DT_FLOAT"}}}, {"name": "StatefulPartitionedCall/center_net_resnet_v1fpn_feature_extractor/functional_3/functional_1/conv4_block5_1_conv/Conv2D_weights", "op": "Const", "attr": {"value": {"tensor": {"dtype": "DT_FLOAT", "tensorShape": {"dim": [{"size": "1"}, {"size": "1"}, {"size": "1024"}, {"size": "256"}]}}}, "dtype": {"type": "DT_FLOAT"}}}, {"name": "StatefulPartitionedCall/center_net_resnet_v1fpn_feature_extractor/functional_3/functional_1/conv4_block5_1_conv/Conv2D_bn_offset", "op": "Const", "attr": {"dtype": {"type": "DT_FLOAT"}, "value": {"tensor": {"dtype": "DT_FLOAT", "tensorShape": {"dim": [{"size": "256"}]}}}}}, {"name": "StatefulPartitionedCall/center_net_resnet_v1fpn_feature_extractor/functional_3/functional_1/conv4_block5_2_conv/Conv2D_weights", "op": "Const", "attr": {"value": {"tensor": {"dtype": "DT_FLOAT", "tensorShape": {"dim": [{"size": "3"}, {"size": "3"}, {"size": "256"}, {"size": "256"}]}}}, "dtype": {"type": "DT_FLOAT"}}}, {"name": "StatefulPartitionedCall/center_net_resnet_v1fpn_feature_extractor/functional_3/functional_1/conv4_block5_2_conv/Conv2D_bn_offset", "op": "Const", "attr": {"value": {"tensor": {"dtype": "DT_FLOAT", "tensorShape": {"dim": [{"size": "256"}]}}}, "dtype": {"type": "DT_FLOAT"}}}, {"name": "StatefulPartitionedCall/center_net_resnet_v1fpn_feature_extractor/functional_3/functional_1/conv4_block5_3_conv/Conv2D_weights", "op": "Const", "attr": {"value": {"tensor": {"dtype": "DT_FLOAT", "tensorShape": {"dim": [{"size": "1"}, {"size": "1"}, {"size": "256"}, {"size": "1024"}]}}}, "dtype": {"type": "DT_FLOAT"}}}, {"name": "StatefulPartitionedCall/center_net_resnet_v1fpn_feature_extractor/functional_3/functional_1/conv4_block5_3_conv/Conv2D_bn_offset", "op": "Const", "attr": {"value": {"tensor": {"dtype": "DT_FLOAT", "tensorShape": {"dim": [{"size": "1024"}]}}}, "dtype": {"type": "DT_FLOAT"}}}, {"name": "StatefulPartitionedCall/center_net_resnet_v1fpn_feature_extractor/functional_3/functional_1/conv4_block6_1_conv/Conv2D_weights", "op": "Const", "attr": {"value": {"tensor": {"dtype": "DT_FLOAT", "tensorShape": {"dim": [{"size": "1"}, {"size": "1"}, {"size": "1024"}, {"size": "256"}]}}}, "dtype": {"type": "DT_FLOAT"}}}, {"name": "StatefulPartitionedCall/center_net_resnet_v1fpn_feature_extractor/functional_3/functional_1/conv4_block6_1_conv/Conv2D_bn_offset", "op": "Const", "attr": {"value": {"tensor": {"dtype": "DT_FLOAT", "tensorShape": {"dim": [{"size": "256"}]}}}, "dtype": {"type": "DT_FLOAT"}}}, {"name": "StatefulPartitionedCall/center_net_resnet_v1fpn_feature_extractor/functional_3/functional_1/conv4_block6_2_conv/Conv2D_weights", "op": "Const", "attr": {"value": {"tensor": {"dtype": "DT_FLOAT", "tensorShape": {"dim": [{"size": "3"}, {"size": "3"}, {"size": "256"}, {"size": "256"}]}}}, "dtype": {"type": "DT_FLOAT"}}}, {"name": "StatefulPartitionedCall/center_net_resnet_v1fpn_feature_extractor/functional_3/functional_1/conv4_block6_2_conv/Conv2D_bn_offset", "op": "Const", "attr": {"dtype": {"type": "DT_FLOAT"}, "value": {"tensor": {"dtype": "DT_FLOAT", "tensorShape": {"dim": [{"size": "256"}]}}}}}, {"name": "StatefulPartitionedCall/center_net_resnet_v1fpn_feature_extractor/functional_3/functional_1/conv4_block6_3_conv/Conv2D_weights", "op": "Const", "attr": {"value": {"tensor": {"dtype": "DT_FLOAT", "tensorShape": {"dim": [{"size": "1"}, {"size": "1"}, {"size": "256"}, {"size": "1024"}]}}}, "dtype": {"type": "DT_FLOAT"}}}, {"name": "StatefulPartitionedCall/center_net_resnet_v1fpn_feature_extractor/functional_3/functional_1/conv4_block6_3_conv/Conv2D_bn_offset", "op": "Const", "attr": {"value": {"tensor": {"dtype": "DT_FLOAT", "tensorShape": {"dim": [{"size": "1024"}]}}}, "dtype": {"type": "DT_FLOAT"}}}, {"name": "StatefulPartitionedCall/center_net_resnet_v1fpn_feature_extractor/functional_3/functional_1/conv5_block1_0_conv/Conv2D_weights", "op": "Const", "attr": {"value": {"tensor": {"dtype": "DT_FLOAT", "tensorShape": {"dim": [{"size": "1"}, {"size": "1"}, {"size": "1024"}, {"size": "2048"}]}}}, "dtype": {"type": "DT_FLOAT"}}}, {"name": "StatefulPartitionedCall/center_net_resnet_v1fpn_feature_extractor/functional_3/functional_1/conv5_block1_0_conv/Conv2D_bn_offset", "op": "Const", "attr": {"value": {"tensor": {"dtype": "DT_FLOAT", "tensorShape": {"dim": [{"size": "2048"}]}}}, "dtype": {"type": "DT_FLOAT"}}}, {"name": "StatefulPartitionedCall/center_net_resnet_v1fpn_feature_extractor/functional_3/functional_1/conv5_block1_1_conv/Conv2D_weights", "op": "Const", "attr": {"value": {"tensor": {"dtype": "DT_FLOAT", "tensorShape": {"dim": [{"size": "1"}, {"size": "1"}, {"size": "1024"}, {"size": "512"}]}}}, "dtype": {"type": "DT_FLOAT"}}}, {"name": "StatefulPartitionedCall/center_net_resnet_v1fpn_feature_extractor/functional_3/functional_1/conv5_block1_1_conv/Conv2D_bn_offset", "op": "Const", "attr": {"value": {"tensor": {"dtype": "DT_FLOAT", "tensorShape": {"dim": [{"size": "512"}]}}}, "dtype": {"type": "DT_FLOAT"}}}, {"name": "StatefulPartitionedCall/center_net_resnet_v1fpn_feature_extractor/functional_3/functional_1/conv5_block1_2_conv/Conv2D_weights", "op": "Const", "attr": {"value": {"tensor": {"dtype": "DT_FLOAT", "tensorShape": {"dim": [{"size": "3"}, {"size": "3"}, {"size": "512"}, {"size": "512"}]}}}, "dtype": {"type": "DT_FLOAT"}}}, {"name": "StatefulPartitionedCall/center_net_resnet_v1fpn_feature_extractor/functional_3/functional_1/conv5_block1_2_conv/Conv2D_bn_offset", "op": "Const", "attr": {"dtype": {"type": "DT_FLOAT"}, "value": {"tensor": {"dtype": "DT_FLOAT", "tensorShape": {"dim": [{"size": "512"}]}}}}}, {"name": "StatefulPartitionedCall/center_net_resnet_v1fpn_feature_extractor/functional_3/functional_1/conv5_block1_3_conv/Conv2D_weights", "op": "Const", "attr": {"value": {"tensor": {"dtype": "DT_FLOAT", "tensorShape": {"dim": [{"size": "1"}, {"size": "1"}, {"size": "512"}, {"size": "2048"}]}}}, "dtype": {"type": "DT_FLOAT"}}}, {"name": "StatefulPartitionedCall/center_net_resnet_v1fpn_feature_extractor/functional_3/functional_1/conv5_block1_3_conv/Conv2D_bn_offset", "op": "Const", "attr": {"dtype": {"type": "DT_FLOAT"}, "value": {"tensor": {"dtype": "DT_FLOAT", "tensorShape": {"dim": [{"size": "2048"}]}}}}}, {"name": "StatefulPartitionedCall/center_net_resnet_v1fpn_feature_extractor/functional_3/functional_1/conv5_block2_1_conv/Conv2D_weights", "op": "Const", "attr": {"value": {"tensor": {"dtype": "DT_FLOAT", "tensorShape": {"dim": [{"size": "1"}, {"size": "1"}, {"size": "2048"}, {"size": "512"}]}}}, "dtype": {"type": "DT_FLOAT"}}}, {"name": "StatefulPartitionedCall/center_net_resnet_v1fpn_feature_extractor/functional_3/functional_1/conv5_block2_1_conv/Conv2D_bn_offset", "op": "Const", "attr": {"dtype": {"type": "DT_FLOAT"}, "value": {"tensor": {"dtype": "DT_FLOAT", "tensorShape": {"dim": [{"size": "512"}]}}}}}, {"name": "StatefulPartitionedCall/center_net_resnet_v1fpn_feature_extractor/functional_3/functional_1/conv5_block2_2_conv/Conv2D_weights", "op": "Const", "attr": {"value": {"tensor": {"dtype": "DT_FLOAT", "tensorShape": {"dim": [{"size": "3"}, {"size": "3"}, {"size": "512"}, {"size": "512"}]}}}, "dtype": {"type": "DT_FLOAT"}}}, {"name": "StatefulPartitionedCall/center_net_resnet_v1fpn_feature_extractor/functional_3/functional_1/conv5_block2_2_conv/Conv2D_bn_offset", "op": "Const", "attr": {"value": {"tensor": {"dtype": "DT_FLOAT", "tensorShape": {"dim": [{"size": "512"}]}}}, "dtype": {"type": "DT_FLOAT"}}}, {"name": "StatefulPartitionedCall/center_net_resnet_v1fpn_feature_extractor/functional_3/functional_1/conv5_block2_3_conv/Conv2D_weights", "op": "Const", "attr": {"dtype": {"type": "DT_FLOAT"}, "value": {"tensor": {"dtype": "DT_FLOAT", "tensorShape": {"dim": [{"size": "1"}, {"size": "1"}, {"size": "512"}, {"size": "2048"}]}}}}}, {"name": "StatefulPartitionedCall/center_net_resnet_v1fpn_feature_extractor/functional_3/functional_1/conv5_block2_3_conv/Conv2D_bn_offset", "op": "Const", "attr": {"value": {"tensor": {"dtype": "DT_FLOAT", "tensorShape": {"dim": [{"size": "2048"}]}}}, "dtype": {"type": "DT_FLOAT"}}}, {"name": "StatefulPartitionedCall/center_net_resnet_v1fpn_feature_extractor/functional_3/functional_1/conv5_block3_1_conv/Conv2D_weights", "op": "Const", "attr": {"value": {"tensor": {"dtype": "DT_FLOAT", "tensorShape": {"dim": [{"size": "1"}, {"size": "1"}, {"size": "2048"}, {"size": "512"}]}}}, "dtype": {"type": "DT_FLOAT"}}}, {"name": "StatefulPartitionedCall/center_net_resnet_v1fpn_feature_extractor/functional_3/functional_1/conv5_block3_1_conv/Conv2D_bn_offset", "op": "Const", "attr": {"dtype": {"type": "DT_FLOAT"}, "value": {"tensor": {"dtype": "DT_FLOAT", "tensorShape": {"dim": [{"size": "512"}]}}}}}, {"name": "StatefulPartitionedCall/center_net_resnet_v1fpn_feature_extractor/functional_3/functional_1/conv5_block3_2_conv/Conv2D_weights", "op": "Const", "attr": {"value": {"tensor": {"dtype": "DT_FLOAT", "tensorShape": {"dim": [{"size": "3"}, {"size": "3"}, {"size": "512"}, {"size": "512"}]}}}, "dtype": {"type": "DT_FLOAT"}}}, {"name": "StatefulPartitionedCall/center_net_resnet_v1fpn_feature_extractor/functional_3/functional_1/conv5_block3_2_conv/Conv2D_bn_offset", "op": "Const", "attr": {"dtype": {"type": "DT_FLOAT"}, "value": {"tensor": {"dtype": "DT_FLOAT", "tensorShape": {"dim": [{"size": "512"}]}}}}}, {"name": "StatefulPartitionedCall/center_net_resnet_v1fpn_feature_extractor/functional_3/functional_1/conv5_block3_3_conv/Conv2D_weights", "op": "Const", "attr": {"value": {"tensor": {"dtype": "DT_FLOAT", "tensorShape": {"dim": [{"size": "1"}, {"size": "1"}, {"size": "512"}, {"size": "2048"}]}}}, "dtype": {"type": "DT_FLOAT"}}}, {"name": "StatefulPartitionedCall/center_net_resnet_v1fpn_feature_extractor/functional_3/functional_1/conv5_block3_3_conv/Conv2D_bn_offset", "op": "Const", "attr": {"dtype": {"type": "DT_FLOAT"}, "value": {"tensor": {"dtype": "DT_FLOAT", "tensorShape": {"dim": [{"size": "2048"}]}}}}}, {"name": "StatefulPartitionedCall/center_net_resnet_v1fpn_feature_extractor/functional_3/conv2d_2/Conv2D_weights", "op": "Const", "attr": {"dtype": {"type": "DT_FLOAT"}, "value": {"tensor": {"dtype": "DT_FLOAT", "tensorShape": {"dim": [{"size": "3"}, {"size": "3"}, {"size": "256"}, {"size": "128"}]}}}}}, {"name": "StatefulPartitionedCall/center_net_resnet_v1fpn_feature_extractor/functional_3/conv2d_2/Conv2D_bn_offset", "op": "Const", "attr": {"dtype": {"type": "DT_FLOAT"}, "value": {"tensor": {"dtype": "DT_FLOAT", "tensorShape": {"dim": [{"size": "128"}]}}}}}, {"name": "StatefulPartitionedCall/center_net_resnet_v1fpn_feature_extractor/functional_3/conv2d_4/Conv2D_weights", "op": "Const", "attr": {"dtype": {"type": "DT_FLOAT"}, "value": {"tensor": {"dtype": "DT_FLOAT", "tensorShape": {"dim": [{"size": "3"}, {"size": "3"}, {"size": "128"}, {"size": "64"}]}}}}}, {"name": "StatefulPartitionedCall/center_net_resnet_v1fpn_feature_extractor/functional_3/conv2d_4/Conv2D_bn_offset", "op": "Const", "attr": {"value": {"tensor": {"dtype": "DT_FLOAT", "tensorShape": {"dim": [{"size": "64"}]}}}, "dtype": {"type": "DT_FLOAT"}}}, {"name": "StatefulPartitionedCall/center_net_resnet_v1fpn_feature_extractor/functional_3/conv2d_6/Conv2D_weights", "op": "Const", "attr": {"value": {"tensor": {"dtype": "DT_FLOAT", "tensorShape": {"dim": [{"size": "3"}, {"size": "3"}, {"size": "64"}, {"size": "64"}]}}}, "dtype": {"type": "DT_FLOAT"}}}, {"name": "StatefulPartitionedCall/center_net_resnet_v1fpn_feature_extractor/functional_3/conv2d_6/Conv2D_bn_offset", "op": "Const", "attr": {"dtype": {"type": "DT_FLOAT"}, "value": {"tensor": {"dtype": "DT_FLOAT", "tensorShape": {"dim": [{"size": "64"}]}}}}}, {"name": "StatefulPartitionedCall/Assert_3/AssertGuard/StatefulPartitionedCall/Assert_3/Condition/_402", "op": "Switch", "input": ["StatefulPartitionedCall/Assert_3/Condition", "StatefulPartitionedCall/Assert_3/Condition"], "attr": {"T": {"type": "DT_BOOL"}}}, {"name": "StatefulPartitionedCall/Assert_2/AssertGuard/StatefulPartitionedCall/Assert_2/Condition/_393", "op": "Switch", "input": ["StatefulPartitionedCall/Assert_2/Condition", "StatefulPartitionedCall/Assert_2/Condition"], "attr": {"T": {"type": "DT_BOOL"}}}, {"name": "StatefulPartitionedCall/Assert_1/AssertGuard/StatefulPartitionedCall/Assert_1/Condition/_384", "op": "Switch", "input": ["StatefulPartitionedCall/Assert_1/Condition", "StatefulPartitionedCall/Assert_1/Condition"], "attr": {"T": {"type": "DT_BOOL"}}}, {"name": "StatefulPartitionedCall/Assert/AssertGuard/StatefulPartitionedCall/Assert/Condition/_375", "op": "Switch", "input": ["StatefulPartitionedCall/Assert/Condition", "StatefulPartitionedCall/Assert/Condition"], "attr": {"T": {"type": "DT_BOOL"}}}, {"name": "StatefulPartitionedCall/Assert/AssertGuard/switch_pred/_372", "op": "Switch", "input": ["StatefulPartitionedCall/Assert/Condition", "StatefulPartitionedCall/Assert/Condition"], "attr": {"T": {"type": "DT_BOOL"}}}, {"name": "StatefulPartitionedCall/Cast", "op": "Cast", "input": ["input_tensor"], "attr": {"Truncate": {"b": false}, "SrcT": {"type": "DT_UINT8"}, "DstT": {"type": "DT_FLOAT"}}}, {"name": "StatefulPartitionedCall/Assert/AssertGuard/pivot_f/_373", "op": "Identity", "input": ["StatefulPartitionedCall/Assert/AssertGuard/switch_pred/_372"], "attr": {"T": {"type": "DT_BOOL"}}}, {"name": "StatefulPartitionedCall/unstack", "op": "Unpack", "input": ["StatefulPartitionedCall/Cast"], "attr": {"T": {"type": "DT_FLOAT"}, "axis": {"i": "0"}, "num": {"i": "1"}}}, {"name": "Func/StatefulPartitionedCall/Assert/AssertGuard/else/_371/input/_429", "op": "Identity", "input": ["StatefulPartitionedCall/Assert/AssertGuard/StatefulPartitionedCall/Assert/Condition/_375", "^StatefulPartitionedCall/Assert/AssertGuard/pivot_f/_373"], "attr": {"T": {"type": "DT_BOOL"}}}, {"name": "StatefulPartitionedCall/ResizeToRange/Shape", "op": "Shape", "input": ["StatefulPartitionedCall/unstack"], "attr": {"out_type": {"type": "DT_INT32"}, "T": {"type": "DT_FLOAT"}}}, {"name": "StatefulPartitionedCall/ResizeToRange/Shape_1", "op": "Shape", "input": ["StatefulPartitionedCall/unstack"], "attr": {"T": {"type": "DT_FLOAT"}, "out_type": {"type": "DT_INT32"}}}, {"name": "StatefulPartitionedCall/ResizeToRange/strided_slice", "op": "StridedSlice", "input": ["StatefulPartitionedCall/ResizeToRange/Shape", "StatefulPartitionedCall/ResizeToRange/strided_slice/stack", "StatefulPartitionedCall/ResizeToRange/strided_slice/stack_1", "StatefulPartitionedCall/ResizeToRange/strided_slice/stack_2"], "attr": {"begin_mask": {"i": "0"}, "T": {"type": "DT_INT32"}, "end_mask": {"i": "0"}, "new_axis_mask": {"i": "0"}, "Index": {"type": "DT_INT32"}, "ellipsis_mask": {"i": "0"}, "shrink_axis_mask": {"i": "1"}}}, {"name": "StatefulPartitionedCall/ResizeToRange/strided_slice_1", "op": "StridedSlice", "input": ["StatefulPartitionedCall/ResizeToRange/Shape_1", "StatefulPartitionedCall/ResizeToRange/strided_slice_1/stack", "StatefulPartitionedCall/ResizeToRange/strided_slice_1/stack_1", "StatefulPartitionedCall/ResizeToRange/strided_slice_1/stack_2"], "attr": {"shrink_axis_mask": {"i": "1"}, "begin_mask": {"i": "0"}, "ellipsis_mask": {"i": "0"}, "Index": {"type": "DT_INT32"}, "new_axis_mask": {"i": "0"}, "T": {"type": "DT_INT32"}, "end_mask": {"i": "0"}}}, {"name": "StatefulPartitionedCall/ResizeToRange/Less", "op": "Less", "input": ["StatefulPartitionedCall/ResizeToRange/strided_slice", "StatefulPartitionedCall/ResizeToRange/strided_slice_1"], "attr": {"T": {"type": "DT_INT32"}}}, {"name": "StatefulPartitionedCall/ResizeToRange/cond/switch_pred/_364", "op": "Switch", "input": ["StatefulPartitionedCall/ResizeToRange/Less", "StatefulPartitionedCall/ResizeToRange/Less"], "attr": {"T": {"type": "DT_BOOL"}}}, {"name": "StatefulPartitionedCall/ResizeToRange/cond/StatefulPartitionedCall/unstack/_367", "op": "Switch", "input": ["StatefulPartitionedCall/unstack", "StatefulPartitionedCall/ResizeToRange/Less"], "attr": {"T": {"type": "DT_FLOAT"}}}, {"name": "StatefulPartitionedCall/ResizeToRange/cond/pivot_f/_365", "op": "Identity", "input": ["StatefulPartitionedCall/ResizeToRange/cond/switch_pred/_364"], "attr": {"T": {"type": "DT_BOOL"}}}, {"name": "StatefulPartitionedCall/ResizeToRange/cond/pivot_t/_366", "op": "Identity", "input": ["StatefulPartitionedCall/ResizeToRange/cond/switch_pred/_364:1"], "attr": {"T": {"type": "DT_BOOL"}}}, {"name": "StatefulPartitionedCall/ResizeToRange/cond/else/_363/ResizeToRange/cond/resize/Cast", "op": "Const", "input": ["^StatefulPartitionedCall/ResizeToRange/cond/pivot_f/_365"], "attr": {"value": {"tensor": {"dtype": "DT_FLOAT", "tensorShape": {}}}, "dtype": {"type": "DT_FLOAT"}}}, {"name": "StatefulPartitionedCall/ResizeToRange/cond/else/_363/ResizeToRange/cond/resize/Cast_2", "op": "Const", "input": ["^StatefulPartitionedCall/ResizeToRange/cond/pivot_f/_365"], "attr": {"value": {"tensor": {"dtype": "DT_FLOAT", "tensorShape": {}}}, "dtype": {"type": "DT_FLOAT"}}}, {"name": "StatefulPartitionedCall/ResizeToRange/cond/else/_363/ResizeToRange/cond/resize/ExpandDims/dim", "op": "Const", "input": ["^StatefulPartitionedCall/ResizeToRange/cond/pivot_f/_365"], "attr": {"dtype": {"type": "DT_INT32"}, "value": {"tensor": {"dtype": "DT_INT32", "tensorShape": {}}}}}, {"name": "StatefulPartitionedCall/ResizeToRange/cond/then/_362/ResizeToRange/cond/resize/Cast", "op": "Const", "input": ["^StatefulPartitionedCall/ResizeToRange/cond/pivot_t/_366"], "attr": {"value": {"tensor": {"dtype": "DT_FLOAT", "tensorShape": {}}}, "dtype": {"type": "DT_FLOAT"}}}, {"name": "StatefulPartitionedCall/ResizeToRange/cond/then/_362/ResizeToRange/cond/resize/Cast_2", "op": "Const", "input": ["^StatefulPartitionedCall/ResizeToRange/cond/pivot_t/_366"], "attr": {"value": {"tensor": {"dtype": "DT_FLOAT", "tensorShape": {}}}, "dtype": {"type": "DT_FLOAT"}}}, {"name": "StatefulPartitionedCall/ResizeToRange/cond/then/_362/ResizeToRange/cond/resize/ExpandDims/dim", "op": "Const", "input": ["^StatefulPartitionedCall/ResizeToRange/cond/pivot_t/_366"], "attr": {"value": {"tensor": {"dtype": "DT_INT32", "tensorShape": {}}}, "dtype": {"type": "DT_INT32"}}}, {"name": "StatefulPartitionedCall/ResizeToRange/cond/else/_363/ResizeToRange/cond/resize/ExpandDims", "op": "ExpandDims", "input": ["StatefulPartitionedCall/ResizeToRange/cond/StatefulPartitionedCall/unstack/_367", "StatefulPartitionedCall/ResizeToRange/cond/else/_363/ResizeToRange/cond/resize/ExpandDims/dim"], "attr": {"Tdim": {"type": "DT_INT32"}, "T": {"type": "DT_FLOAT"}}}, {"name": "StatefulPartitionedCall/ResizeToRange/cond/then/_362/ResizeToRange/cond/resize/ExpandDims", "op": "ExpandDims", "input": ["StatefulPartitionedCall/ResizeToRange/cond/StatefulPartitionedCall/unstack/_367:1", "StatefulPartitionedCall/ResizeToRange/cond/then/_362/ResizeToRange/cond/resize/ExpandDims/dim"], "attr": {"Tdim": {"type": "DT_INT32"}, "T": {"type": "DT_FLOAT"}}}, {"name": "StatefulPartitionedCall/ResizeToRange/cond/else/_363/ResizeToRange/cond/resize/Shape", "op": "Shape", "input": ["StatefulPartitionedCall/ResizeToRange/cond/else/_363/ResizeToRange/cond/resize/ExpandDims"], "attr": {"out_type": {"type": "DT_INT32"}, "T": {"type": "DT_FLOAT"}}}, {"name": "StatefulPartitionedCall/ResizeToRange/cond/then/_362/ResizeToRange/cond/resize/Shape", "op": "Shape", "input": ["StatefulPartitionedCall/ResizeToRange/cond/then/_362/ResizeToRange/cond/resize/ExpandDims"], "attr": {"T": {"type": "DT_FLOAT"}, "out_type": {"type": "DT_INT32"}}}, {"name": "StatefulPartitionedCall/ResizeToRange/cond/else/_363/ResizeToRange/cond/resize/unstack", "op": "Unpack", "input": ["StatefulPartitionedCall/ResizeToRange/cond/else/_363/ResizeToRange/cond/resize/Shape"], "attr": {"T": {"type": "DT_INT32"}, "axis": {"i": "0"}, "num": {"i": "4"}}}, {"name": "StatefulPartitionedCall/ResizeToRange/cond/then/_362/ResizeToRange/cond/resize/unstack", "op": "Unpack", "input": ["StatefulPartitionedCall/ResizeToRange/cond/then/_362/ResizeToRange/cond/resize/Shape"], "attr": {"axis": {"i": "0"}, "num": {"i": "4"}, "T": {"type": "DT_INT32"}}}, {"name": "StatefulPartitionedCall/ResizeToRange/cond/else/_363/ResizeToRange/cond/resize/Cast_4", "op": "Cast", "input": ["StatefulPartitionedCall/ResizeToRange/cond/else/_363/ResizeToRange/cond/resize/unstack:1"], "attr": {"DstT": {"type": "DT_FLOAT"}, "SrcT": {"type": "DT_INT32"}, "Truncate": {"b": false}}}, {"name": "StatefulPartitionedCall/ResizeToRange/cond/else/_363/ResizeToRange/cond/resize/Cast_1", "op": "Cast", "input": ["StatefulPartitionedCall/ResizeToRange/cond/else/_363/ResizeToRange/cond/resize/unstack:1"], "attr": {"Truncate": {"b": false}, "SrcT": {"type": "DT_INT32"}, "DstT": {"type": "DT_FLOAT"}}}, {"name": "StatefulPartitionedCall/ResizeToRange/cond/else/_363/ResizeToRange/cond/resize/Cast_3", "op": "Cast", "input": ["StatefulPartitionedCall/ResizeToRange/cond/else/_363/ResizeToRange/cond/resize/unstack:2"], "attr": {"Truncate": {"b": false}, "DstT": {"type": "DT_FLOAT"}, "SrcT": {"type": "DT_INT32"}}}, {"name": "StatefulPartitionedCall/ResizeToRange/cond/else/_363/ResizeToRange/cond/resize/Cast_6", "op": "Cast", "input": ["StatefulPartitionedCall/ResizeToRange/cond/else/_363/ResizeToRange/cond/resize/unstack:2"], "attr": {"SrcT": {"type": "DT_INT32"}, "DstT": {"type": "DT_FLOAT"}, "Truncate": {"b": false}}}, {"name": "StatefulPartitionedCall/ResizeToRange/cond/then/_362/ResizeToRange/cond/resize/Cast_4", "op": "Cast", "input": ["StatefulPartitionedCall/ResizeToRange/cond/then/_362/ResizeToRange/cond/resize/unstack:1"], "attr": {"DstT": {"type": "DT_FLOAT"}, "SrcT": {"type": "DT_INT32"}, "Truncate": {"b": false}}}, {"name": "StatefulPartitionedCall/ResizeToRange/cond/then/_362/ResizeToRange/cond/resize/Cast_1", "op": "Cast", "input": ["StatefulPartitionedCall/ResizeToRange/cond/then/_362/ResizeToRange/cond/resize/unstack:1"], "attr": {"DstT": {"type": "DT_FLOAT"}, "SrcT": {"type": "DT_INT32"}, "Truncate": {"b": false}}}, {"name": "StatefulPartitionedCall/ResizeToRange/cond/then/_362/ResizeToRange/cond/resize/Cast_3", "op": "Cast", "input": ["StatefulPartitionedCall/ResizeToRange/cond/then/_362/ResizeToRange/cond/resize/unstack:2"], "attr": {"DstT": {"type": "DT_FLOAT"}, "SrcT": {"type": "DT_INT32"}, "Truncate": {"b": false}}}, {"name": "StatefulPartitionedCall/ResizeToRange/cond/then/_362/ResizeToRange/cond/resize/Cast_6", "op": "Cast", "input": ["StatefulPartitionedCall/ResizeToRange/cond/then/_362/ResizeToRange/cond/resize/unstack:2"], "attr": {"SrcT": {"type": "DT_INT32"}, "Truncate": {"b": false}, "DstT": {"type": "DT_FLOAT"}}}, {"name": "StatefulPartitionedCall/ResizeToRange/cond/else/_363/ResizeToRange/cond/resize/truediv", "op": "RealDiv", "input": ["StatefulPartitionedCall/ResizeToRange/cond/else/_363/ResizeToRange/cond/resize/Cast", "StatefulPartitionedCall/ResizeToRange/cond/else/_363/ResizeToRange/cond/resize/Cast_1"], "attr": {"T": {"type": "DT_FLOAT"}}}, {"name": "StatefulPartitionedCall/ResizeToRange/cond/else/_363/ResizeToRange/cond/resize/truediv_1", "op": "RealDiv", "input": ["StatefulPartitionedCall/ResizeToRange/cond/else/_363/ResizeToRange/cond/resize/Cast_2", "StatefulPartitionedCall/ResizeToRange/cond/else/_363/ResizeToRange/cond/resize/Cast_3"], "attr": {"T": {"type": "DT_FLOAT"}}}, {"name": "StatefulPartitionedCall/ResizeToRange/cond/then/_362/ResizeToRange/cond/resize/truediv", "op": "RealDiv", "input": ["StatefulPartitionedCall/ResizeToRange/cond/then/_362/ResizeToRange/cond/resize/Cast", "StatefulPartitionedCall/ResizeToRange/cond/then/_362/ResizeToRange/cond/resize/Cast_1"], "attr": {"T": {"type": "DT_FLOAT"}}}, {"name": "StatefulPartitionedCall/ResizeToRange/cond/then/_362/ResizeToRange/cond/resize/truediv_1", "op": "RealDiv", "input": ["StatefulPartitionedCall/ResizeToRange/cond/then/_362/ResizeToRange/cond/resize/Cast_2", "StatefulPartitionedCall/ResizeToRange/cond/then/_362/ResizeToRange/cond/resize/Cast_3"], "attr": {"T": {"type": "DT_FLOAT"}}}, {"name": "StatefulPartitionedCall/ResizeToRange/cond/else/_363/ResizeToRange/cond/resize/Minimum", "op": "Minimum", "input": ["StatefulPartitionedCall/ResizeToRange/cond/else/_363/ResizeToRange/cond/resize/truediv", "StatefulPartitionedCall/ResizeToRange/cond/else/_363/ResizeToRange/cond/resize/truediv_1"], "attr": {"T": {"type": "DT_FLOAT"}}}, {"name": "StatefulPartitionedCall/ResizeToRange/cond/then/_362/ResizeToRange/cond/resize/Minimum", "op": "Minimum", "input": ["StatefulPartitionedCall/ResizeToRange/cond/then/_362/ResizeToRange/cond/resize/truediv", "StatefulPartitionedCall/ResizeToRange/cond/then/_362/ResizeToRange/cond/resize/truediv_1"], "attr": {"T": {"type": "DT_FLOAT"}}}, {"name": "StatefulPartitionedCall/ResizeToRange/cond/else/_363/ResizeToRange/cond/resize/mul", "op": "Mul", "input": ["StatefulPartitionedCall/ResizeToRange/cond/else/_363/ResizeToRange/cond/resize/Minimum", "StatefulPartitionedCall/ResizeToRange/cond/else/_363/ResizeToRange/cond/resize/Cast_4"], "attr": {"T": {"type": "DT_FLOAT"}}}, {"name": "StatefulPartitionedCall/ResizeToRange/cond/else/_363/ResizeToRange/cond/resize/mul_1", "op": "Mul", "input": ["StatefulPartitionedCall/ResizeToRange/cond/else/_363/ResizeToRange/cond/resize/Minimum", "StatefulPartitionedCall/ResizeToRange/cond/else/_363/ResizeToRange/cond/resize/Cast_6"], "attr": {"T": {"type": "DT_FLOAT"}}}, {"name": "StatefulPartitionedCall/ResizeToRange/cond/then/_362/ResizeToRange/cond/resize/mul", "op": "Mul", "input": ["StatefulPartitionedCall/ResizeToRange/cond/then/_362/ResizeToRange/cond/resize/Minimum", "StatefulPartitionedCall/ResizeToRange/cond/then/_362/ResizeToRange/cond/resize/Cast_4"], "attr": {"T": {"type": "DT_FLOAT"}}}, {"name": "StatefulPartitionedCall/ResizeToRange/cond/then/_362/ResizeToRange/cond/resize/mul_1", "op": "Mul", "input": ["StatefulPartitionedCall/ResizeToRange/cond/then/_362/ResizeToRange/cond/resize/Minimum", "StatefulPartitionedCall/ResizeToRange/cond/then/_362/ResizeToRange/cond/resize/Cast_6"], "attr": {"T": {"type": "DT_FLOAT"}}}, {"name": "StatefulPartitionedCall/ResizeToRange/cond/else/_363/ResizeToRange/cond/resize/Round", "op": "Round", "input": ["StatefulPartitionedCall/ResizeToRange/cond/else/_363/ResizeToRange/cond/resize/mul"], "attr": {"T": {"type": "DT_FLOAT"}}}, {"name": "StatefulPartitionedCall/ResizeToRange/cond/else/_363/ResizeToRange/cond/resize/Round_1", "op": "Round", "input": ["StatefulPartitionedCall/ResizeToRange/cond/else/_363/ResizeToRange/cond/resize/mul_1"], "attr": {"T": {"type": "DT_FLOAT"}}}, {"name": "StatefulPartitionedCall/ResizeToRange/cond/then/_362/ResizeToRange/cond/resize/Round", "op": "Round", "input": ["StatefulPartitionedCall/ResizeToRange/cond/then/_362/ResizeToRange/cond/resize/mul"], "attr": {"T": {"type": "DT_FLOAT"}}}, {"name": "StatefulPartitionedCall/ResizeToRange/cond/then/_362/ResizeToRange/cond/resize/Round_1", "op": "Round", "input": ["StatefulPartitionedCall/ResizeToRange/cond/then/_362/ResizeToRange/cond/resize/mul_1"], "attr": {"T": {"type": "DT_FLOAT"}}}, {"name": "StatefulPartitionedCall/ResizeToRange/cond/else/_363/ResizeToRange/cond/resize/Cast_5", "op": "Cast", "input": ["StatefulPartitionedCall/ResizeToRange/cond/else/_363/ResizeToRange/cond/resize/Round"], "attr": {"Truncate": {"b": false}, "DstT": {"type": "DT_INT32"}, "SrcT": {"type": "DT_FLOAT"}}}, {"name": "StatefulPartitionedCall/ResizeToRange/cond/else/_363/ResizeToRange/cond/resize/Cast_7", "op": "Cast", "input": ["StatefulPartitionedCall/ResizeToRange/cond/else/_363/ResizeToRange/cond/resize/Round_1"], "attr": {"SrcT": {"type": "DT_FLOAT"}, "DstT": {"type": "DT_INT32"}, "Truncate": {"b": false}}}, {"name": "StatefulPartitionedCall/ResizeToRange/cond/then/_362/ResizeToRange/cond/resize/Cast_5", "op": "Cast", "input": ["StatefulPartitionedCall/ResizeToRange/cond/then/_362/ResizeToRange/cond/resize/Round"], "attr": {"DstT": {"type": "DT_INT32"}, "Truncate": {"b": false}, "SrcT": {"type": "DT_FLOAT"}}}, {"name": "StatefulPartitionedCall/ResizeToRange/cond/then/_362/ResizeToRange/cond/resize/Cast_7", "op": "Cast", "input": ["StatefulPartitionedCall/ResizeToRange/cond/then/_362/ResizeToRange/cond/resize/Round_1"], "attr": {"Truncate": {"b": false}, "SrcT": {"type": "DT_FLOAT"}, "DstT": {"type": "DT_INT32"}}}, {"name": "StatefulPartitionedCall/ResizeToRange/cond/else/_363/ResizeToRange/cond/resize/size", "op": "Pack", "input": ["StatefulPartitionedCall/ResizeToRange/cond/else/_363/ResizeToRange/cond/resize/Cast_5", "StatefulPartitionedCall/ResizeToRange/cond/else/_363/ResizeToRange/cond/resize/Cast_7"], "attr": {"T": {"type": "DT_INT32"}, "N": {"i": "2"}, "axis": {"i": "0"}}}, {"name": "StatefulPartitionedCall/ResizeToRange/cond/then/_362/ResizeToRange/cond/resize/size", "op": "Pack", "input": ["StatefulPartitionedCall/ResizeToRange/cond/then/_362/ResizeToRange/cond/resize/Cast_5", "StatefulPartitionedCall/ResizeToRange/cond/then/_362/ResizeToRange/cond/resize/Cast_7"], "attr": {"axis": {"i": "0"}, "N": {"i": "2"}, "T": {"type": "DT_INT32"}}}, {"name": "StatefulPartitionedCall/ResizeToRange/cond/else/_363/ResizeToRange/cond/resize/ResizeBilinear", "op": "ResizeBilinear", "input": ["StatefulPartitionedCall/ResizeToRange/cond/else/_363/ResizeToRange/cond/resize/ExpandDims", "StatefulPartitionedCall/ResizeToRange/cond/else/_363/ResizeToRange/cond/resize/size"], "attr": {"T": {"type": "DT_FLOAT"}, "align_corners": {"b": false}, "half_pixel_centers": {"b": false}}}, {"name": "StatefulPartitionedCall/ResizeToRange/cond/then/_362/ResizeToRange/cond/resize/ResizeBilinear", "op": "ResizeBilinear", "input": ["StatefulPartitionedCall/ResizeToRange/cond/then/_362/ResizeToRange/cond/resize/ExpandDims", "StatefulPartitionedCall/ResizeToRange/cond/then/_362/ResizeToRange/cond/resize/size"], "attr": {"T": {"type": "DT_FLOAT"}, "align_corners": {"b": false}, "half_pixel_centers": {"b": false}}}, {"name": "StatefulPartitionedCall/ResizeToRange/cond/else/_363/ResizeToRange/cond/resize/Squeeze", "op": "Squeeze", "input": ["StatefulPartitionedCall/ResizeToRange/cond/else/_363/ResizeToRange/cond/resize/ResizeBilinear"], "attr": {"squeeze_dims": {"list": {"i": ["0"]}}, "T": {"type": "DT_FLOAT"}}}, {"name": "StatefulPartitionedCall/ResizeToRange/cond/then/_362/ResizeToRange/cond/resize/Squeeze", "op": "Squeeze", "input": ["StatefulPartitionedCall/ResizeToRange/cond/then/_362/ResizeToRange/cond/resize/ResizeBilinear"], "attr": {"T": {"type": "DT_FLOAT"}, "squeeze_dims": {"list": {"i": ["0"]}}}}, {"name": "StatefulPartitionedCall/ResizeToRange/cond/output/_368", "op": "Merge", "input": ["StatefulPartitionedCall/ResizeToRange/cond/then/_362/ResizeToRange/cond/resize/Squeeze", "StatefulPartitionedCall/ResizeToRange/cond/else/_363/ResizeToRange/cond/resize/Squeeze"], "attr": {"N": {"i": "2"}, "T": {"type": "DT_FLOAT"}}}, {"name": "StatefulPartitionedCall/ResizeToRange/unstack", "op": "Unpack", "input": ["StatefulPartitionedCall/ResizeToRange/cond/output/_368"], "attr": {"num": {"i": "3"}, "axis": {"i": "2"}, "T": {"type": "DT_FLOAT"}}}, {"name": "StatefulPartitionedCall/ResizeToRange/Shape_2", "op": "Shape", "input": ["StatefulPartitionedCall/ResizeToRange/cond/output/_368"], "attr": {"T": {"type": "DT_FLOAT"}, "out_type": {"type": "DT_INT32"}}}, {"name": "StatefulPartitionedCall/ResizeToRange/strided_slice_2", "op": "StridedSlice", "input": ["StatefulPartitionedCall/ResizeToRange/Shape_2", "StatefulPartitionedCall/ResizeToRange/strided_slice_2/stack", "StatefulPartitionedCall/ResizeToRange/strided_slice_2/stack_1", "StatefulPartitionedCall/ResizeToRange/strided_slice_2/stack_2"], "attr": {"ellipsis_mask": {"i": "0"}, "shrink_axis_mask": {"i": "1"}, "Index": {"type": "DT_INT32"}, "T": {"type": "DT_INT32"}, "end_mask": {"i": "0"}, "new_axis_mask": {"i": "0"}, "begin_mask": {"i": "0"}}}, {"name": "StatefulPartitionedCall/ResizeToRange/strided_slice_3", "op": "StridedSlice", "input": ["StatefulPartitionedCall/ResizeToRange/Shape_2", "StatefulPartitionedCall/ResizeToRange/strided_slice_3/stack", "StatefulPartitionedCall/ResizeToRange/strided_slice_3/stack_1", "StatefulPartitionedCall/ResizeToRange/strided_slice_3/stack_2"], "attr": {"Index": {"type": "DT_INT32"}, "begin_mask": {"i": "0"}, "ellipsis_mask": {"i": "0"}, "end_mask": {"i": "0"}, "shrink_axis_mask": {"i": "1"}, "new_axis_mask": {"i": "0"}, "T": {"type": "DT_INT32"}}}, {"name": "StatefulPartitionedCall/ResizeToRange/strided_slice_4", "op": "StridedSlice", "input": ["StatefulPartitionedCall/ResizeToRange/Shape_2", "StatefulPartitionedCall/ResizeToRange/strided_slice_4/stack", "StatefulPartitionedCall/ResizeToRange/strided_slice_4/stack_1", "StatefulPartitionedCall/ResizeToRange/strided_slice_4/stack_2"], "attr": {"begin_mask": {"i": "0"}, "new_axis_mask": {"i": "0"}, "Index": {"type": "DT_INT32"}, "ellipsis_mask": {"i": "0"}, "T": {"type": "DT_INT32"}, "end_mask": {"i": "0"}, "shrink_axis_mask": {"i": "1"}}}, {"name": "StatefulPartitionedCall/ResizeToRange/strided_slice_5", "op": "StridedSlice", "input": ["StatefulPartitionedCall/ResizeToRange/Shape_2", "StatefulPartitionedCall/ResizeToRange/strided_slice_5/stack", "StatefulPartitionedCall/ResizeToRange/strided_slice_5/stack_1", "StatefulPartitionedCall/ResizeToRange/strided_slice_5/stack_2"], "attr": {"ellipsis_mask": {"i": "0"}, "Index": {"type": "DT_INT32"}, "new_axis_mask": {"i": "0"}, "shrink_axis_mask": {"i": "1"}, "T": {"type": "DT_INT32"}, "begin_mask": {"i": "0"}, "end_mask": {"i": "0"}}}, {"name": "StatefulPartitionedCall/ResizeToRange/strided_slice_6", "op": "StridedSlice", "input": ["StatefulPartitionedCall/ResizeToRange/Shape_2", "StatefulPartitionedCall/ResizeToRange/strided_slice_6/stack", "StatefulPartitionedCall/ResizeToRange/strided_slice_6/stack_1", "StatefulPartitionedCall/ResizeToRange/strided_slice_6/stack_2"], "attr": {"end_mask": {"i": "0"}, "Index": {"type": "DT_INT32"}, "begin_mask": {"i": "0"}, "ellipsis_mask": {"i": "0"}, "T": {"type": "DT_INT32"}, "new_axis_mask": {"i": "0"}, "shrink_axis_mask": {"i": "1"}}}, {"name": "StatefulPartitionedCall/ResizeToRange/strided_slice_7", "op": "StridedSlice", "input": ["StatefulPartitionedCall/ResizeToRange/Shape_2", "StatefulPartitionedCall/ResizeToRange/strided_slice_7/stack", "StatefulPartitionedCall/ResizeToRange/strided_slice_7/stack_1", "StatefulPartitionedCall/ResizeToRange/strided_slice_7/stack_2"], "attr": {"shrink_axis_mask": {"i": "1"}, "ellipsis_mask": {"i": "0"}, "begin_mask": {"i": "0"}, "end_mask": {"i": "0"}, "T": {"type": "DT_INT32"}, "Index": {"type": "DT_INT32"}, "new_axis_mask": {"i": "0"}}}, {"name": "ConstantFolding/StatefulPartitionedCall/stack_1_const_axis", "op": "Const", "input": ["^StatefulPartitionedCall/ResizeToRange/Shape_2"], "attr": {"dtype": {"type": "DT_INT32"}, "value": {"tensor": {"dtype": "DT_INT32", "tensorShape": {}}}}}, {"name": "StatefulPartitionedCall/ResizeToRange/sub", "op": "Sub", "input": ["StatefulPartitionedCall/ResizeToRange/sub/x", "StatefulPartitionedCall/ResizeToRange/strided_slice_2"], "attr": {"T": {"type": "DT_INT32"}}}, {"name": "StatefulPartitionedCall/ResizeToRange/sub_1", "op": "Sub", "input": ["StatefulPartitionedCall/ResizeToRange/sub_1/x", "StatefulPartitionedCall/ResizeToRange/strided_slice_3"], "attr": {"T": {"type": "DT_INT32"}}}, {"name": "StatefulPartitionedCall/ResizeToRange/sub_2", "op": "Sub", "input": ["StatefulPartitionedCall/ResizeToRange/sub_2/x", "StatefulPartitionedCall/ResizeToRange/strided_slice_4"], "attr": {"T": {"type": "DT_INT32"}}}, {"name": "StatefulPartitionedCall/ResizeToRange/sub_3", "op": "Sub", "input": ["StatefulPartitionedCall/ResizeToRange/sub_3/x", "StatefulPartitionedCall/ResizeToRange/strided_slice_5"], "attr": {"T": {"type": "DT_INT32"}}}, {"name": "StatefulPartitionedCall/ResizeToRange/sub_4", "op": "Sub", "input": ["StatefulPartitionedCall/ResizeToRange/sub_4/x", "StatefulPartitionedCall/ResizeToRange/strided_slice_6"], "attr": {"T": {"type": "DT_INT32"}}}, {"name": "StatefulPartitionedCall/ResizeToRange/sub_5", "op": "Sub", "input": ["StatefulPartitionedCall/ResizeToRange/sub_5/x", "StatefulPartitionedCall/ResizeToRange/strided_slice_7"], "attr": {"T": {"type": "DT_INT32"}}}, {"name": "StatefulPartitionedCall/stack_1", "op": "ExpandDims", "input": ["StatefulPartitionedCall/ResizeToRange/Shape_2", "ConstantFolding/StatefulPartitionedCall/stack_1_const_axis"], "attr": {"Tdim": {"type": "DT_INT32"}, "T": {"type": "DT_INT32"}}}, {"name": "StatefulPartitionedCall/ResizeToRange/Pad/paddings/0", "op": "Pack", "input": ["StatefulPartitionedCall/ResizeToRange/Pad/paddings/0/0", "StatefulPartitionedCall/ResizeToRange/sub"], "attr": {"T": {"type": "DT_INT32"}, "N": {"i": "2"}, "axis": {"i": "0"}}}, {"name": "StatefulPartitionedCall/ResizeToRange/Pad/paddings/1", "op": "Pack", "input": ["StatefulPartitionedCall/ResizeToRange/Pad/paddings/1/0", "StatefulPartitionedCall/ResizeToRange/sub_1"], "attr": {"axis": {"i": "0"}, "T": {"type": "DT_INT32"}, "N": {"i": "2"}}}, {"name": "StatefulPartitionedCall/ResizeToRange/Pad_1/paddings/0", "op": "Pack", "input": ["StatefulPartitionedCall/ResizeToRange/Pad_1/paddings/0/0", "StatefulPartitionedCall/ResizeToRange/sub_2"], "attr": {"N": {"i": "2"}, "axis": {"i": "0"}, "T": {"type": "DT_INT32"}}}, {"name": "StatefulPartitionedCall/ResizeToRange/Pad_1/paddings/1", "op": "Pack", "input": ["StatefulPartitionedCall/ResizeToRange/Pad_1/paddings/1/0", "StatefulPartitionedCall/ResizeToRange/sub_3"], "attr": {"N": {"i": "2"}, "axis": {"i": "0"}, "T": {"type": "DT_INT32"}}}, {"name": "StatefulPartitionedCall/ResizeToRange/Pad_2/paddings/0", "op": "Pack", "input": ["StatefulPartitionedCall/ResizeToRange/Pad_2/paddings/0/0", "StatefulPartitionedCall/ResizeToRange/sub_4"], "attr": {"N": {"i": "2"}, "axis": {"i": "0"}, "T": {"type": "DT_INT32"}}}, {"name": "StatefulPartitionedCall/ResizeToRange/Pad_2/paddings/1", "op": "Pack", "input": ["StatefulPartitionedCall/ResizeToRange/Pad_2/paddings/1/0", "StatefulPartitionedCall/ResizeToRange/sub_5"], "attr": {"T": {"type": "DT_INT32"}, "N": {"i": "2"}, "axis": {"i": "0"}}}, {"name": "StatefulPartitionedCall/unstack_4", "op": "Unpack", "input": ["StatefulPartitionedCall/stack_1"], "attr": {"T": {"type": "DT_INT32"}, "axis": {"i": "1"}, "num": {"i": "3"}}}, {"name": "StatefulPartitionedCall/ResizeToRange/Pad/paddings", "op": "Pack", "input": ["StatefulPartitionedCall/ResizeToRange/Pad/paddings/0", "StatefulPartitionedCall/ResizeToRange/Pad/paddings/1"], "attr": {"axis": {"i": "0"}, "T": {"type": "DT_INT32"}, "N": {"i": "2"}}}, {"name": "StatefulPartitionedCall/ResizeToRange/Pad_1/paddings", "op": "Pack", "input": ["StatefulPartitionedCall/ResizeToRange/Pad_1/paddings/0", "StatefulPartitionedCall/ResizeToRange/Pad_1/paddings/1"], "attr": {"axis": {"i": "0"}, "T": {"type": "DT_INT32"}, "N": {"i": "2"}}}, {"name": "StatefulPartitionedCall/ResizeToRange/Pad_2/paddings", "op": "Pack", "input": ["StatefulPartitionedCall/ResizeToRange/Pad_2/paddings/0", "StatefulPartitionedCall/ResizeToRange/Pad_2/paddings/1"], "attr": {"axis": {"i": "0"}, "N": {"i": "2"}, "T": {"type": "DT_INT32"}}}, {"name": "StatefulPartitionedCall/unstack_5", "op": "Unpack", "input": ["StatefulPartitionedCall/unstack_4"], "attr": {"T": {"type": "DT_INT32"}, "num": {"i": "1"}, "axis": {"i": "0"}}}, {"name": "StatefulPartitionedCall/unstack_6", "op": "Unpack", "input": ["StatefulPartitionedCall/unstack_4:1"], "attr": {"axis": {"i": "0"}, "num": {"i": "1"}, "T": {"type": "DT_INT32"}}}, {"name": "StatefulPartitionedCall/ResizeToRange/Pad", "op": "Pad", "input": ["StatefulPartitionedCall/ResizeToRange/unstack", "StatefulPartitionedCall/ResizeToRange/Pad/paddings"], "attr": {"Tpaddings": {"type": "DT_INT32"}, "T": {"type": "DT_FLOAT"}}}, {"name": "StatefulPartitionedCall/ResizeToRange/Pad_1", "op": "Pad", "input": ["StatefulPartitionedCall/ResizeToRange/unstack:1", "StatefulPartitionedCall/ResizeToRange/Pad_1/paddings"], "attr": {"T": {"type": "DT_FLOAT"}, "Tpaddings": {"type": "DT_INT32"}}}, {"name": "StatefulPartitionedCall/ResizeToRange/Pad_2", "op": "Pad", "input": ["StatefulPartitionedCall/ResizeToRange/unstack:2", "StatefulPartitionedCall/ResizeToRange/Pad_2/paddings"], "attr": {"T": {"type": "DT_FLOAT"}, "Tpaddings": {"type": "DT_INT32"}}}, {"name": "StatefulPartitionedCall/ToNormalizedCoordinates/Cast", "op": "Cast", "input": ["StatefulPartitionedCall/unstack_5"], "attr": {"DstT": {"type": "DT_FLOAT"}, "SrcT": {"type": "DT_INT32"}, "Truncate": {"b": false}}}, {"name": "StatefulPartitionedCall/ToNormalizedCoordinates/Cast_1", "op": "Cast", "input": ["StatefulPartitionedCall/unstack_6"], "attr": {"DstT": {"type": "DT_FLOAT"}, "SrcT": {"type": "DT_INT32"}, "Truncate": {"b": false}}}, {"name": "StatefulPartitionedCall/ResizeToRange/stack", "op": "Pack", "input": ["StatefulPartitionedCall/ResizeToRange/Pad", "StatefulPartitionedCall/ResizeToRange/Pad_1", "StatefulPartitionedCall/ResizeToRange/Pad_2"], "attr": {"N": {"i": "3"}, "axis": {"i": "2"}, "T": {"type": "DT_FLOAT"}}}, {"name": "StatefulPartitionedCall/ToNormalizedCoordinates/truediv", "op": "Reciprocal", "input": ["StatefulPartitionedCall/ToNormalizedCoordinates/Cast"], "attr": {"T": {"type": "DT_FLOAT"}}}, {"name": "ConstantFolding/StatefulPartitionedCall/stack_const_axis", "op": "Const", "input": ["^StatefulPartitionedCall/ResizeToRange/stack"], "attr": {"value": {"tensor": {"dtype": "DT_INT32", "tensorShape": {}}}, "dtype": {"type": "DT_INT32"}}}, {"name": "StatefulPartitionedCall/stack", "op": "ExpandDims", "input": ["StatefulPartitionedCall/ResizeToRange/stack", "ConstantFolding/StatefulPartitionedCall/stack_const_axis"], "attr": {"T": {"type": "DT_FLOAT"}, "Tdim": {"type": "DT_INT32"}}}, {"name": "StatefulPartitionedCall/strided_slice", "op": "StridedSlice", "input": ["StatefulPartitionedCall/stack", "StatefulPartitionedCall/strided_slice/stack", "StatefulPartitionedCall/strided_slice/stack_1", "StatefulPartitionedCall/strided_slice/stack_2"], "attr": {"new_axis_mask": {"i": "0"}, "ellipsis_mask": {"i": "1"}, "Index": {"type": "DT_INT32"}, "T": {"type": "DT_FLOAT"}, "shrink_axis_mask": {"i": "0"}, "end_mask": {"i": "2"}, "begin_mask": {"i": "2"}}}, {"name": "StatefulPartitionedCall/BiasAdd", "op": "BiasAdd", "input": ["StatefulPartitionedCall/strided_slice", "StatefulPartitionedCall/Const_2"], "attr": {"T": {"type": "DT_FLOAT"}, "data_format": {"s": "TkhXQw=="}}}, {"name": "StatefulPartitionedCall/center_net_resnet_v1fpn_feature_extractor/functional_3/functional_1/conv1_pad/Pad", "op": "Pad", "input": ["StatefulPartitionedCall/BiasAdd", "StatefulPartitionedCall/center_net_resnet_v1fpn_feature_extractor/functional_3/functional_1/conv1_pad/Pad/paddings"], "attr": {"Tpaddings": {"type": "DT_INT32"}, "T": {"type": "DT_FLOAT"}}}, {"name": "StatefulPartitionedCall/center_net_resnet_v1fpn_feature_extractor/functional_3/functional_1/conv1_relu/Relu", "op": "_FusedConv2D", "input": ["StatefulPartitionedCall/center_net_resnet_v1fpn_feature_extractor/functional_3/functional_1/conv1_pad/Pad", "StatefulPartitionedCall/center_net_resnet_v1fpn_feature_extractor/functional_3/functional_1/conv1_conv/Conv2D_weights", "StatefulPartitionedCall/center_net_resnet_v1fpn_feature_extractor/functional_3/functional_1/conv1_conv/Conv2D_bn_offset"], "device": "/device:CPU:0", "attr": {"explicit_paddings": {"list": {}}, "epsilon": {"f": 0.0}, "padding": {"s": "VkFMSUQ="}, "dilations": {"list": {"i": ["1", "1", "1", "1"]}}, "data_format": {"s": "TkhXQw=="}, "num_args": {"i": "1"}, "fused_ops": {"list": {"s": ["Qmlhc0FkZA==", "UmVsdQ=="]}}, "T": {"type": "DT_FLOAT"}, "use_cudnn_on_gpu": {"b": true}, "strides": {"list": {"i": ["1", "2", "2", "1"]}}}}, {"name": "StatefulPartitionedCall/center_net_resnet_v1fpn_feature_extractor/functional_3/functional_1/pool1_pad/Pad", "op": "Pad", "input": ["StatefulPartitionedCall/center_net_resnet_v1fpn_feature_extractor/functional_3/functional_1/conv1_relu/Relu", "StatefulPartitionedCall/center_net_resnet_v1fpn_feature_extractor/functional_3/functional_1/pool1_pad/Pad/paddings"], "attr": {"T": {"type": "DT_FLOAT"}, "Tpaddings": {"type": "DT_INT32"}}}, {"name": "StatefulPartitionedCall/center_net_resnet_v1fpn_feature_extractor/functional_3/functional_1/pool1_pool/MaxPool", "op": "MaxPool", "input": ["StatefulPartitionedCall/center_net_resnet_v1fpn_feature_extractor/functional_3/functional_1/pool1_pad/Pad"], "attr": {"padding": {"s": "VkFMSUQ="}, "ksize": {"list": {"i": ["1", "3", "3", "1"]}}, "strides": {"list": {"i": ["1", "2", "2", "1"]}}, "data_format": {"s": "TkhXQw=="}, "explicit_paddings": {"list": {}}, "T": {"type": "DT_FLOAT"}}}, {"name": "StatefulPartitionedCall/center_net_resnet_v1fpn_feature_extractor/functional_3/functional_1/conv2_block1_0_bn/FusedBatchNormV3", "op": "_FusedConv2D", "input": ["StatefulPartitionedCall/center_net_resnet_v1fpn_feature_extractor/functional_3/functional_1/pool1_pool/MaxPool", "StatefulPartitionedCall/center_net_resnet_v1fpn_feature_extractor/functional_3/functional_1/conv2_block1_0_conv/Conv2D_weights", "StatefulPartitionedCall/center_net_resnet_v1fpn_feature_extractor/functional_3/functional_1/conv2_block1_0_conv/Conv2D_bn_offset"], "device": "/device:CPU:0", "attr": {"epsilon": {"f": 0.0}, "dilations": {"list": {"i": ["1", "1", "1", "1"]}}, "T": {"type": "DT_FLOAT"}, "num_args": {"i": "1"}, "explicit_paddings": {"list": {}}, "strides": {"list": {"i": ["1", "1", "1", "1"]}}, "fused_ops": {"list": {"s": ["Qmlhc0FkZA=="]}}, "use_cudnn_on_gpu": {"b": true}, "padding": {"s": "VkFMSUQ="}, "data_format": {"s": "TkhXQw=="}}}, {"name": "StatefulPartitionedCall/center_net_resnet_v1fpn_feature_extractor/functional_3/functional_1/conv2_block1_1_relu/Relu", "op": "_FusedConv2D", "input": ["StatefulPartitionedCall/center_net_resnet_v1fpn_feature_extractor/functional_3/functional_1/pool1_pool/MaxPool", "StatefulPartitionedCall/center_net_resnet_v1fpn_feature_extractor/functional_3/functional_1/conv2_block1_1_conv/Conv2D_weights", "StatefulPartitionedCall/center_net_resnet_v1fpn_feature_extractor/functional_3/functional_1/conv2_block1_1_conv/Conv2D_bn_offset"], "device": "/device:CPU:0", "attr": {"T": {"type": "DT_FLOAT"}, "epsilon": {"f": 0.0}, "fused_ops": {"list": {"s": ["Qmlhc0FkZA==", "UmVsdQ=="]}}, "padding": {"s": "VkFMSUQ="}, "explicit_paddings": {"list": {}}, "strides": {"list": {"i": ["1", "1", "1", "1"]}}, "num_args": {"i": "1"}, "dilations": {"list": {"i": ["1", "1", "1", "1"]}}, "data_format": {"s": "TkhXQw=="}, "use_cudnn_on_gpu": {"b": true}}}, {"name": "StatefulPartitionedCall/center_net_resnet_v1fpn_feature_extractor/functional_3/functional_1/conv2_block1_2_relu/Relu", "op": "_FusedConv2D", "input": ["StatefulPartitionedCall/center_net_resnet_v1fpn_feature_extractor/functional_3/functional_1/conv2_block1_1_relu/Relu", "StatefulPartitionedCall/center_net_resnet_v1fpn_feature_extractor/functional_3/functional_1/conv2_block1_2_conv/Conv2D_weights", "StatefulPartitionedCall/center_net_resnet_v1fpn_feature_extractor/functional_3/functional_1/conv2_block1_2_conv/Conv2D_bn_offset"], "device": "/device:CPU:0", "attr": {"epsilon": {"f": 0.0}, "T": {"type": "DT_FLOAT"}, "explicit_paddings": {"list": {}}, "num_args": {"i": "1"}, "fused_ops": {"list": {"s": ["Qmlhc0FkZA==", "UmVsdQ=="]}}, "data_format": {"s": "TkhXQw=="}, "use_cudnn_on_gpu": {"b": true}, "strides": {"list": {"i": ["1", "1", "1", "1"]}}, "padding": {"s": "U0FNRQ=="}, "dilations": {"list": {"i": ["1", "1", "1", "1"]}}}}, {"name": "StatefulPartitionedCall/center_net_resnet_v1fpn_feature_extractor/functional_3/functional_1/conv2_block1_3_bn/FusedBatchNormV3", "op": "_FusedConv2D", "input": ["StatefulPartitionedCall/center_net_resnet_v1fpn_feature_extractor/functional_3/functional_1/conv2_block1_2_relu/Relu", "StatefulPartitionedCall/center_net_resnet_v1fpn_feature_extractor/functional_3/functional_1/conv2_block1_3_conv/Conv2D_weights", "StatefulPartitionedCall/center_net_resnet_v1fpn_feature_extractor/functional_3/functional_1/conv2_block1_3_conv/Conv2D_bn_offset"], "device": "/device:CPU:0", "attr": {"use_cudnn_on_gpu": {"b": true}, "fused_ops": {"list": {"s": ["Qmlhc0FkZA=="]}}, "explicit_paddings": {"list": {}}, "epsilon": {"f": 0.0}, "strides": {"list": {"i": ["1", "1", "1", "1"]}}, "dilations": {"list": {"i": ["1", "1", "1", "1"]}}, "num_args": {"i": "1"}, "padding": {"s": "VkFMSUQ="}, "T": {"type": "DT_FLOAT"}, "data_format": {"s": "TkhXQw=="}}}, {"name": "StatefulPartitionedCall/center_net_resnet_v1fpn_feature_extractor/functional_3/functional_1/conv2_block1_add/add", "op": "AddV2", "input": ["StatefulPartitionedCall/center_net_resnet_v1fpn_feature_extractor/functional_3/functional_1/conv2_block1_0_bn/FusedBatchNormV3", "StatefulPartitionedCall/center_net_resnet_v1fpn_feature_extractor/functional_3/functional_1/conv2_block1_3_bn/FusedBatchNormV3"], "attr": {"T": {"type": "DT_FLOAT"}}}, {"name": "StatefulPartitionedCall/center_net_resnet_v1fpn_feature_extractor/functional_3/functional_1/conv2_block1_out/Relu", "op": "Relu", "input": ["StatefulPartitionedCall/center_net_resnet_v1fpn_feature_extractor/functional_3/functional_1/conv2_block1_add/add"], "attr": {"T": {"type": "DT_FLOAT"}}}, {"name": "StatefulPartitionedCall/center_net_resnet_v1fpn_feature_extractor/functional_3/functional_1/conv2_block2_1_relu/Relu", "op": "_FusedConv2D", "input": ["StatefulPartitionedCall/center_net_resnet_v1fpn_feature_extractor/functional_3/functional_1/conv2_block1_out/Relu", "StatefulPartitionedCall/center_net_resnet_v1fpn_feature_extractor/functional_3/functional_1/conv2_block2_1_conv/Conv2D_weights", "StatefulPartitionedCall/center_net_resnet_v1fpn_feature_extractor/functional_3/functional_1/conv2_block2_1_conv/Conv2D_bn_offset"], "device": "/device:CPU:0", "attr": {"dilations": {"list": {"i": ["1", "1", "1", "1"]}}, "padding": {"s": "VkFMSUQ="}, "T": {"type": "DT_FLOAT"}, "explicit_paddings": {"list": {}}, "use_cudnn_on_gpu": {"b": true}, "data_format": {"s": "TkhXQw=="}, "strides": {"list": {"i": ["1", "1", "1", "1"]}}, "epsilon": {"f": 0.0}, "fused_ops": {"list": {"s": ["Qmlhc0FkZA==", "UmVsdQ=="]}}, "num_args": {"i": "1"}}}, {"name": "StatefulPartitionedCall/center_net_resnet_v1fpn_feature_extractor/functional_3/functional_1/conv2_block2_2_relu/Relu", "op": "_FusedConv2D", "input": ["StatefulPartitionedCall/center_net_resnet_v1fpn_feature_extractor/functional_3/functional_1/conv2_block2_1_relu/Relu", "StatefulPartitionedCall/center_net_resnet_v1fpn_feature_extractor/functional_3/functional_1/conv2_block2_2_conv/Conv2D_weights", "StatefulPartitionedCall/center_net_resnet_v1fpn_feature_extractor/functional_3/functional_1/conv2_block2_2_conv/Conv2D_bn_offset"], "device": "/device:CPU:0", "attr": {"T": {"type": "DT_FLOAT"}, "padding": {"s": "U0FNRQ=="}, "explicit_paddings": {"list": {}}, "data_format": {"s": "TkhXQw=="}, "num_args": {"i": "1"}, "strides": {"list": {"i": ["1", "1", "1", "1"]}}, "epsilon": {"f": 0.0}, "use_cudnn_on_gpu": {"b": true}, "dilations": {"list": {"i": ["1", "1", "1", "1"]}}, "fused_ops": {"list": {"s": ["Qmlhc0FkZA==", "UmVsdQ=="]}}}}, {"name": "StatefulPartitionedCall/center_net_resnet_v1fpn_feature_extractor/functional_3/functional_1/conv2_block2_3_bn/FusedBatchNormV3", "op": "_FusedConv2D", "input": ["StatefulPartitionedCall/center_net_resnet_v1fpn_feature_extractor/functional_3/functional_1/conv2_block2_2_relu/Relu", "StatefulPartitionedCall/center_net_resnet_v1fpn_feature_extractor/functional_3/functional_1/conv2_block2_3_conv/Conv2D_weights", "StatefulPartitionedCall/center_net_resnet_v1fpn_feature_extractor/functional_3/functional_1/conv2_block2_3_conv/Conv2D_bn_offset"], "device": "/device:CPU:0", "attr": {"num_args": {"i": "1"}, "use_cudnn_on_gpu": {"b": true}, "epsilon": {"f": 0.0}, "padding": {"s": "VkFMSUQ="}, "strides": {"list": {"i": ["1", "1", "1", "1"]}}, "explicit_paddings": {"list": {}}, "dilations": {"list": {"i": ["1", "1", "1", "1"]}}, "fused_ops": {"list": {"s": ["Qmlhc0FkZA=="]}}, "T": {"type": "DT_FLOAT"}, "data_format": {"s": "TkhXQw=="}}}, {"name": "StatefulPartitionedCall/center_net_resnet_v1fpn_feature_extractor/functional_3/functional_1/conv2_block2_add/add", "op": "AddV2", "input": ["StatefulPartitionedCall/center_net_resnet_v1fpn_feature_extractor/functional_3/functional_1/conv2_block1_out/Relu", "StatefulPartitionedCall/center_net_resnet_v1fpn_feature_extractor/functional_3/functional_1/conv2_block2_3_bn/FusedBatchNormV3"], "attr": {"T": {"type": "DT_FLOAT"}}}, {"name": "StatefulPartitionedCall/center_net_resnet_v1fpn_feature_extractor/functional_3/functional_1/conv2_block2_out/Relu", "op": "Relu", "input": ["StatefulPartitionedCall/center_net_resnet_v1fpn_feature_extractor/functional_3/functional_1/conv2_block2_add/add"], "attr": {"T": {"type": "DT_FLOAT"}}}, {"name": "StatefulPartitionedCall/center_net_resnet_v1fpn_feature_extractor/functional_3/functional_1/conv2_block3_1_relu/Relu", "op": "_FusedConv2D", "input": ["StatefulPartitionedCall/center_net_resnet_v1fpn_feature_extractor/functional_3/functional_1/conv2_block2_out/Relu", "StatefulPartitionedCall/center_net_resnet_v1fpn_feature_extractor/functional_3/functional_1/conv2_block3_1_conv/Conv2D_weights", "StatefulPartitionedCall/center_net_resnet_v1fpn_feature_extractor/functional_3/functional_1/conv2_block3_1_conv/Conv2D_bn_offset"], "device": "/device:CPU:0", "attr": {"data_format": {"s": "TkhXQw=="}, "epsilon": {"f": 0.0}, "explicit_paddings": {"list": {}}, "num_args": {"i": "1"}, "strides": {"list": {"i": ["1", "1", "1", "1"]}}, "T": {"type": "DT_FLOAT"}, "padding": {"s": "VkFMSUQ="}, "dilations": {"list": {"i": ["1", "1", "1", "1"]}}, "fused_ops": {"list": {"s": ["Qmlhc0FkZA==", "UmVsdQ=="]}}, "use_cudnn_on_gpu": {"b": true}}}, {"name": "StatefulPartitionedCall/center_net_resnet_v1fpn_feature_extractor/functional_3/functional_1/conv2_block3_2_relu/Relu", "op": "_FusedConv2D", "input": ["StatefulPartitionedCall/center_net_resnet_v1fpn_feature_extractor/functional_3/functional_1/conv2_block3_1_relu/Relu", "StatefulPartitionedCall/center_net_resnet_v1fpn_feature_extractor/functional_3/functional_1/conv2_block3_2_conv/Conv2D_weights", "StatefulPartitionedCall/center_net_resnet_v1fpn_feature_extractor/functional_3/functional_1/conv2_block3_2_conv/Conv2D_bn_offset"], "device": "/device:CPU:0", "attr": {"strides": {"list": {"i": ["1", "1", "1", "1"]}}, "padding": {"s": "U0FNRQ=="}, "explicit_paddings": {"list": {}}, "dilations": {"list": {"i": ["1", "1", "1", "1"]}}, "T": {"type": "DT_FLOAT"}, "data_format": {"s": "TkhXQw=="}, "num_args": {"i": "1"}, "fused_ops": {"list": {"s": ["Qmlhc0FkZA==", "UmVsdQ=="]}}, "epsilon": {"f": 0.0}, "use_cudnn_on_gpu": {"b": true}}}, {"name": "StatefulPartitionedCall/center_net_resnet_v1fpn_feature_extractor/functional_3/functional_1/conv2_block3_3_bn/FusedBatchNormV3", "op": "_FusedConv2D", "input": ["StatefulPartitionedCall/center_net_resnet_v1fpn_feature_extractor/functional_3/functional_1/conv2_block3_2_relu/Relu", "StatefulPartitionedCall/center_net_resnet_v1fpn_feature_extractor/functional_3/functional_1/conv2_block3_3_conv/Conv2D_weights", "StatefulPartitionedCall/center_net_resnet_v1fpn_feature_extractor/functional_3/functional_1/conv2_block3_3_conv/Conv2D_bn_offset"], "device": "/device:CPU:0", "attr": {"data_format": {"s": "TkhXQw=="}, "num_args": {"i": "1"}, "strides": {"list": {"i": ["1", "1", "1", "1"]}}, "fused_ops": {"list": {"s": ["Qmlhc0FkZA=="]}}, "dilations": {"list": {"i": ["1", "1", "1", "1"]}}, "T": {"type": "DT_FLOAT"}, "use_cudnn_on_gpu": {"b": true}, "padding": {"s": "VkFMSUQ="}, "explicit_paddings": {"list": {}}, "epsilon": {"f": 0.0}}}, {"name": "StatefulPartitionedCall/center_net_resnet_v1fpn_feature_extractor/functional_3/functional_1/conv2_block3_add/add", "op": "AddV2", "input": ["StatefulPartitionedCall/center_net_resnet_v1fpn_feature_extractor/functional_3/functional_1/conv2_block2_out/Relu", "StatefulPartitionedCall/center_net_resnet_v1fpn_feature_extractor/functional_3/functional_1/conv2_block3_3_bn/FusedBatchNormV3"], "attr": {"T": {"type": "DT_FLOAT"}}}, {"name": "StatefulPartitionedCall/center_net_resnet_v1fpn_feature_extractor/functional_3/functional_1/conv2_block3_out/Relu", "op": "Relu", "input": ["StatefulPartitionedCall/center_net_resnet_v1fpn_feature_extractor/functional_3/functional_1/conv2_block3_add/add"], "attr": {"T": {"type": "DT_FLOAT"}}}, {"name": "StatefulPartitionedCall/center_net_resnet_v1fpn_feature_extractor/functional_3/conv2d_5/BiasAdd", "op": "_FusedConv2D", "input": ["StatefulPartitionedCall/center_net_resnet_v1fpn_feature_extractor/functional_3/functional_1/conv2_block3_out/Relu", "unknown_335", "unknown_336"], "device": "/device:CPU:0", "attr": {"num_args": {"i": "1"}, "strides": {"list": {"i": ["1", "1", "1", "1"]}}, "padding": {"s": "U0FNRQ=="}, "dilations": {"list": {"i": ["1", "1", "1", "1"]}}, "explicit_paddings": {"list": {}}, "use_cudnn_on_gpu": {"b": true}, "fused_ops": {"list": {"s": ["Qmlhc0FkZA=="]}}, "T": {"type": "DT_FLOAT"}, "epsilon": {"f": 0.0}, "data_format": {"s": "TkhXQw=="}}}, {"name": "StatefulPartitionedCall/center_net_resnet_v1fpn_feature_extractor/functional_3/functional_1/conv3_block1_0_bn/FusedBatchNormV3", "op": "_FusedConv2D", "input": ["StatefulPartitionedCall/center_net_resnet_v1fpn_feature_extractor/functional_3/functional_1/conv2_block3_out/Relu", "StatefulPartitionedCall/center_net_resnet_v1fpn_feature_extractor/functional_3/functional_1/conv3_block1_0_conv/Conv2D_weights", "StatefulPartitionedCall/center_net_resnet_v1fpn_feature_extractor/functional_3/functional_1/conv3_block1_0_conv/Conv2D_bn_offset"], "device": "/device:CPU:0", "attr": {"strides": {"list": {"i": ["1", "2", "2", "1"]}}, "T": {"type": "DT_FLOAT"}, "explicit_paddings": {"list": {}}, "padding": {"s": "VkFMSUQ="}, "use_cudnn_on_gpu": {"b": true}, "data_format": {"s": "TkhXQw=="}, "epsilon": {"f": 0.0}, "fused_ops": {"list": {"s": ["Qmlhc0FkZA=="]}}, "num_args": {"i": "1"}, "dilations": {"list": {"i": ["1", "1", "1", "1"]}}}}, {"name": "StatefulPartitionedCall/center_net_resnet_v1fpn_feature_extractor/functional_3/functional_1/conv3_block1_1_relu/Relu", "op": "_FusedConv2D", "input": ["StatefulPartitionedCall/center_net_resnet_v1fpn_feature_extractor/functional_3/functional_1/conv2_block3_out/Relu", "StatefulPartitionedCall/center_net_resnet_v1fpn_feature_extractor/functional_3/functional_1/conv3_block1_1_conv/Conv2D_weights", "StatefulPartitionedCall/center_net_resnet_v1fpn_feature_extractor/functional_3/functional_1/conv3_block1_1_conv/Conv2D_bn_offset"], "device": "/device:CPU:0", "attr": {"epsilon": {"f": 0.0}, "fused_ops": {"list": {"s": ["Qmlhc0FkZA==", "UmVsdQ=="]}}, "use_cudnn_on_gpu": {"b": true}, "num_args": {"i": "1"}, "explicit_paddings": {"list": {}}, "dilations": {"list": {"i": ["1", "1", "1", "1"]}}, "padding": {"s": "VkFMSUQ="}, "strides": {"list": {"i": ["1", "2", "2", "1"]}}, "T": {"type": "DT_FLOAT"}, "data_format": {"s": "TkhXQw=="}}}, {"name": "StatefulPartitionedCall/center_net_resnet_v1fpn_feature_extractor/functional_3/functional_1/conv3_block1_2_relu/Relu", "op": "_FusedConv2D", "input": ["StatefulPartitionedCall/center_net_resnet_v1fpn_feature_extractor/functional_3/functional_1/conv3_block1_1_relu/Relu", "StatefulPartitionedCall/center_net_resnet_v1fpn_feature_extractor/functional_3/functional_1/conv3_block1_2_conv/Conv2D_weights", "StatefulPartitionedCall/center_net_resnet_v1fpn_feature_extractor/functional_3/functional_1/conv3_block1_2_conv/Conv2D_bn_offset"], "device": "/device:CPU:0", "attr": {"padding": {"s": "U0FNRQ=="}, "data_format": {"s": "TkhXQw=="}, "num_args": {"i": "1"}, "T": {"type": "DT_FLOAT"}, "fused_ops": {"list": {"s": ["Qmlhc0FkZA==", "UmVsdQ=="]}}, "dilations": {"list": {"i": ["1", "1", "1", "1"]}}, "epsilon": {"f": 0.0}, "explicit_paddings": {"list": {}}, "strides": {"list": {"i": ["1", "1", "1", "1"]}}, "use_cudnn_on_gpu": {"b": true}}}, {"name": "StatefulPartitionedCall/center_net_resnet_v1fpn_feature_extractor/functional_3/functional_1/conv3_block1_3_bn/FusedBatchNormV3", "op": "_FusedConv2D", "input": ["StatefulPartitionedCall/center_net_resnet_v1fpn_feature_extractor/functional_3/functional_1/conv3_block1_2_relu/Relu", "StatefulPartitionedCall/center_net_resnet_v1fpn_feature_extractor/functional_3/functional_1/conv3_block1_3_conv/Conv2D_weights", "StatefulPartitionedCall/center_net_resnet_v1fpn_feature_extractor/functional_3/functional_1/conv3_block1_3_conv/Conv2D_bn_offset"], "device": "/device:CPU:0", "attr": {"T": {"type": "DT_FLOAT"}, "dilations": {"list": {"i": ["1", "1", "1", "1"]}}, "data_format": {"s": "TkhXQw=="}, "strides": {"list": {"i": ["1", "1", "1", "1"]}}, "padding": {"s": "VkFMSUQ="}, "use_cudnn_on_gpu": {"b": true}, "fused_ops": {"list": {"s": ["Qmlhc0FkZA=="]}}, "explicit_paddings": {"list": {}}, "epsilon": {"f": 0.0}, "num_args": {"i": "1"}}}, {"name": "StatefulPartitionedCall/center_net_resnet_v1fpn_feature_extractor/functional_3/functional_1/conv3_block1_add/add", "op": "AddV2", "input": ["StatefulPartitionedCall/center_net_resnet_v1fpn_feature_extractor/functional_3/functional_1/conv3_block1_0_bn/FusedBatchNormV3", "StatefulPartitionedCall/center_net_resnet_v1fpn_feature_extractor/functional_3/functional_1/conv3_block1_3_bn/FusedBatchNormV3"], "attr": {"T": {"type": "DT_FLOAT"}}}, {"name": "StatefulPartitionedCall/center_net_resnet_v1fpn_feature_extractor/functional_3/functional_1/conv3_block1_out/Relu", "op": "Relu", "input": ["StatefulPartitionedCall/center_net_resnet_v1fpn_feature_extractor/functional_3/functional_1/conv3_block1_add/add"], "attr": {"T": {"type": "DT_FLOAT"}}}, {"name": "StatefulPartitionedCall/center_net_resnet_v1fpn_feature_extractor/functional_3/functional_1/conv3_block2_1_relu/Relu", "op": "_FusedConv2D", "input": ["StatefulPartitionedCall/center_net_resnet_v1fpn_feature_extractor/functional_3/functional_1/conv3_block1_out/Relu", "StatefulPartitionedCall/center_net_resnet_v1fpn_feature_extractor/functional_3/functional_1/conv3_block2_1_conv/Conv2D_weights", "StatefulPartitionedCall/center_net_resnet_v1fpn_feature_extractor/functional_3/functional_1/conv3_block2_1_conv/Conv2D_bn_offset"], "device": "/device:CPU:0", "attr": {"explicit_paddings": {"list": {}}, "strides": {"list": {"i": ["1", "1", "1", "1"]}}, "data_format": {"s": "TkhXQw=="}, "T": {"type": "DT_FLOAT"}, "fused_ops": {"list": {"s": ["Qmlhc0FkZA==", "UmVsdQ=="]}}, "use_cudnn_on_gpu": {"b": true}, "dilations": {"list": {"i": ["1", "1", "1", "1"]}}, "padding": {"s": "VkFMSUQ="}, "epsilon": {"f": 0.0}, "num_args": {"i": "1"}}}, {"name": "StatefulPartitionedCall/center_net_resnet_v1fpn_feature_extractor/functional_3/functional_1/conv3_block2_2_relu/Relu", "op": "_FusedConv2D", "input": ["StatefulPartitionedCall/center_net_resnet_v1fpn_feature_extractor/functional_3/functional_1/conv3_block2_1_relu/Relu", "StatefulPartitionedCall/center_net_resnet_v1fpn_feature_extractor/functional_3/functional_1/conv3_block2_2_conv/Conv2D_weights", "StatefulPartitionedCall/center_net_resnet_v1fpn_feature_extractor/functional_3/functional_1/conv3_block2_2_conv/Conv2D_bn_offset"], "device": "/device:CPU:0", "attr": {"epsilon": {"f": 0.0}, "dilations": {"list": {"i": ["1", "1", "1", "1"]}}, "explicit_paddings": {"list": {}}, "T": {"type": "DT_FLOAT"}, "data_format": {"s": "TkhXQw=="}, "num_args": {"i": "1"}, "padding": {"s": "U0FNRQ=="}, "fused_ops": {"list": {"s": ["Qmlhc0FkZA==", "UmVsdQ=="]}}, "use_cudnn_on_gpu": {"b": true}, "strides": {"list": {"i": ["1", "1", "1", "1"]}}}}, {"name": "StatefulPartitionedCall/center_net_resnet_v1fpn_feature_extractor/functional_3/functional_1/conv3_block2_3_bn/FusedBatchNormV3", "op": "_FusedConv2D", "input": ["StatefulPartitionedCall/center_net_resnet_v1fpn_feature_extractor/functional_3/functional_1/conv3_block2_2_relu/Relu", "StatefulPartitionedCall/center_net_resnet_v1fpn_feature_extractor/functional_3/functional_1/conv3_block2_3_conv/Conv2D_weights", "StatefulPartitionedCall/center_net_resnet_v1fpn_feature_extractor/functional_3/functional_1/conv3_block2_3_conv/Conv2D_bn_offset"], "device": "/device:CPU:0", "attr": {"padding": {"s": "VkFMSUQ="}, "strides": {"list": {"i": ["1", "1", "1", "1"]}}, "epsilon": {"f": 0.0}, "T": {"type": "DT_FLOAT"}, "dilations": {"list": {"i": ["1", "1", "1", "1"]}}, "explicit_paddings": {"list": {}}, "fused_ops": {"list": {"s": ["Qmlhc0FkZA=="]}}, "use_cudnn_on_gpu": {"b": true}, "num_args": {"i": "1"}, "data_format": {"s": "TkhXQw=="}}}, {"name": "StatefulPartitionedCall/center_net_resnet_v1fpn_feature_extractor/functional_3/functional_1/conv3_block2_add/add", "op": "AddV2", "input": ["StatefulPartitionedCall/center_net_resnet_v1fpn_feature_extractor/functional_3/functional_1/conv3_block1_out/Relu", "StatefulPartitionedCall/center_net_resnet_v1fpn_feature_extractor/functional_3/functional_1/conv3_block2_3_bn/FusedBatchNormV3"], "attr": {"T": {"type": "DT_FLOAT"}}}, {"name": "StatefulPartitionedCall/center_net_resnet_v1fpn_feature_extractor/functional_3/functional_1/conv3_block2_out/Relu", "op": "Relu", "input": ["StatefulPartitionedCall/center_net_resnet_v1fpn_feature_extractor/functional_3/functional_1/conv3_block2_add/add"], "attr": {"T": {"type": "DT_FLOAT"}}}, {"name": "StatefulPartitionedCall/center_net_resnet_v1fpn_feature_extractor/functional_3/functional_1/conv3_block3_1_relu/Relu", "op": "_FusedConv2D", "input": ["StatefulPartitionedCall/center_net_resnet_v1fpn_feature_extractor/functional_3/functional_1/conv3_block2_out/Relu", "StatefulPartitionedCall/center_net_resnet_v1fpn_feature_extractor/functional_3/functional_1/conv3_block3_1_conv/Conv2D_weights", "StatefulPartitionedCall/center_net_resnet_v1fpn_feature_extractor/functional_3/functional_1/conv3_block3_1_conv/Conv2D_bn_offset"], "device": "/device:CPU:0", "attr": {"explicit_paddings": {"list": {}}, "dilations": {"list": {"i": ["1", "1", "1", "1"]}}, "padding": {"s": "VkFMSUQ="}, "num_args": {"i": "1"}, "strides": {"list": {"i": ["1", "1", "1", "1"]}}, "data_format": {"s": "TkhXQw=="}, "use_cudnn_on_gpu": {"b": true}, "epsilon": {"f": 0.0}, "fused_ops": {"list": {"s": ["Qmlhc0FkZA==", "UmVsdQ=="]}}, "T": {"type": "DT_FLOAT"}}}, {"name": "StatefulPartitionedCall/center_net_resnet_v1fpn_feature_extractor/functional_3/functional_1/conv3_block3_2_relu/Relu", "op": "_FusedConv2D", "input": ["StatefulPartitionedCall/center_net_resnet_v1fpn_feature_extractor/functional_3/functional_1/conv3_block3_1_relu/Relu", "StatefulPartitionedCall/center_net_resnet_v1fpn_feature_extractor/functional_3/functional_1/conv3_block3_2_conv/Conv2D_weights", "StatefulPartitionedCall/center_net_resnet_v1fpn_feature_extractor/functional_3/functional_1/conv3_block3_2_conv/Conv2D_bn_offset"], "device": "/device:CPU:0", "attr": {"use_cudnn_on_gpu": {"b": true}, "fused_ops": {"list": {"s": ["Qmlhc0FkZA==", "UmVsdQ=="]}}, "explicit_paddings": {"list": {}}, "padding": {"s": "U0FNRQ=="}, "data_format": {"s": "TkhXQw=="}, "strides": {"list": {"i": ["1", "1", "1", "1"]}}, "epsilon": {"f": 0.0}, "T": {"type": "DT_FLOAT"}, "num_args": {"i": "1"}, "dilations": {"list": {"i": ["1", "1", "1", "1"]}}}}, {"name": "StatefulPartitionedCall/center_net_resnet_v1fpn_feature_extractor/functional_3/functional_1/conv3_block3_3_bn/FusedBatchNormV3", "op": "_FusedConv2D", "input": ["StatefulPartitionedCall/center_net_resnet_v1fpn_feature_extractor/functional_3/functional_1/conv3_block3_2_relu/Relu", "StatefulPartitionedCall/center_net_resnet_v1fpn_feature_extractor/functional_3/functional_1/conv3_block3_3_conv/Conv2D_weights", "StatefulPartitionedCall/center_net_resnet_v1fpn_feature_extractor/functional_3/functional_1/conv3_block3_3_conv/Conv2D_bn_offset"], "device": "/device:CPU:0", "attr": {"epsilon": {"f": 0.0}, "use_cudnn_on_gpu": {"b": true}, "dilations": {"list": {"i": ["1", "1", "1", "1"]}}, "T": {"type": "DT_FLOAT"}, "fused_ops": {"list": {"s": ["Qmlhc0FkZA=="]}}, "num_args": {"i": "1"}, "explicit_paddings": {"list": {}}, "strides": {"list": {"i": ["1", "1", "1", "1"]}}, "padding": {"s": "VkFMSUQ="}, "data_format": {"s": "TkhXQw=="}}}, {"name": "StatefulPartitionedCall/center_net_resnet_v1fpn_feature_extractor/functional_3/functional_1/conv3_block3_add/add", "op": "AddV2", "input": ["StatefulPartitionedCall/center_net_resnet_v1fpn_feature_extractor/functional_3/functional_1/conv3_block2_out/Relu", "StatefulPartitionedCall/center_net_resnet_v1fpn_feature_extractor/functional_3/functional_1/conv3_block3_3_bn/FusedBatchNormV3"], "attr": {"T": {"type": "DT_FLOAT"}}}, {"name": "StatefulPartitionedCall/center_net_resnet_v1fpn_feature_extractor/functional_3/functional_1/conv3_block3_out/Relu", "op": "Relu", "input": ["StatefulPartitionedCall/center_net_resnet_v1fpn_feature_extractor/functional_3/functional_1/conv3_block3_add/add"], "attr": {"T": {"type": "DT_FLOAT"}}}, {"name": "StatefulPartitionedCall/center_net_resnet_v1fpn_feature_extractor/functional_3/functional_1/conv3_block4_1_relu/Relu", "op": "_FusedConv2D", "input": ["StatefulPartitionedCall/center_net_resnet_v1fpn_feature_extractor/functional_3/functional_1/conv3_block3_out/Relu", "StatefulPartitionedCall/center_net_resnet_v1fpn_feature_extractor/functional_3/functional_1/conv3_block4_1_conv/Conv2D_weights", "StatefulPartitionedCall/center_net_resnet_v1fpn_feature_extractor/functional_3/functional_1/conv3_block4_1_conv/Conv2D_bn_offset"], "device": "/device:CPU:0", "attr": {"dilations": {"list": {"i": ["1", "1", "1", "1"]}}, "data_format": {"s": "TkhXQw=="}, "T": {"type": "DT_FLOAT"}, "explicit_paddings": {"list": {}}, "fused_ops": {"list": {"s": ["Qmlhc0FkZA==", "UmVsdQ=="]}}, "num_args": {"i": "1"}, "epsilon": {"f": 0.0}, "use_cudnn_on_gpu": {"b": true}, "padding": {"s": "VkFMSUQ="}, "strides": {"list": {"i": ["1", "1", "1", "1"]}}}}, {"name": "StatefulPartitionedCall/center_net_resnet_v1fpn_feature_extractor/functional_3/functional_1/conv3_block4_2_relu/Relu", "op": "_FusedConv2D", "input": ["StatefulPartitionedCall/center_net_resnet_v1fpn_feature_extractor/functional_3/functional_1/conv3_block4_1_relu/Relu", "StatefulPartitionedCall/center_net_resnet_v1fpn_feature_extractor/functional_3/functional_1/conv3_block4_2_conv/Conv2D_weights", "StatefulPartitionedCall/center_net_resnet_v1fpn_feature_extractor/functional_3/functional_1/conv3_block4_2_conv/Conv2D_bn_offset"], "device": "/device:CPU:0", "attr": {"epsilon": {"f": 0.0}, "num_args": {"i": "1"}, "strides": {"list": {"i": ["1", "1", "1", "1"]}}, "explicit_paddings": {"list": {}}, "padding": {"s": "U0FNRQ=="}, "fused_ops": {"list": {"s": ["Qmlhc0FkZA==", "UmVsdQ=="]}}, "use_cudnn_on_gpu": {"b": true}, "dilations": {"list": {"i": ["1", "1", "1", "1"]}}, "T": {"type": "DT_FLOAT"}, "data_format": {"s": "TkhXQw=="}}}, {"name": "StatefulPartitionedCall/center_net_resnet_v1fpn_feature_extractor/functional_3/functional_1/conv3_block4_3_bn/FusedBatchNormV3", "op": "_FusedConv2D", "input": ["StatefulPartitionedCall/center_net_resnet_v1fpn_feature_extractor/functional_3/functional_1/conv3_block4_2_relu/Relu", "StatefulPartitionedCall/center_net_resnet_v1fpn_feature_extractor/functional_3/functional_1/conv3_block4_3_conv/Conv2D_weights", "StatefulPartitionedCall/center_net_resnet_v1fpn_feature_extractor/functional_3/functional_1/conv3_block4_3_conv/Conv2D_bn_offset"], "device": "/device:CPU:0", "attr": {"num_args": {"i": "1"}, "use_cudnn_on_gpu": {"b": true}, "dilations": {"list": {"i": ["1", "1", "1", "1"]}}, "explicit_paddings": {"list": {}}, "padding": {"s": "VkFMSUQ="}, "T": {"type": "DT_FLOAT"}, "data_format": {"s": "TkhXQw=="}, "strides": {"list": {"i": ["1", "1", "1", "1"]}}, "epsilon": {"f": 0.0}, "fused_ops": {"list": {"s": ["Qmlhc0FkZA=="]}}}}, {"name": "StatefulPartitionedCall/center_net_resnet_v1fpn_feature_extractor/functional_3/functional_1/conv3_block4_add/add", "op": "AddV2", "input": ["StatefulPartitionedCall/center_net_resnet_v1fpn_feature_extractor/functional_3/functional_1/conv3_block3_out/Relu", "StatefulPartitionedCall/center_net_resnet_v1fpn_feature_extractor/functional_3/functional_1/conv3_block4_3_bn/FusedBatchNormV3"], "attr": {"T": {"type": "DT_FLOAT"}}}, {"name": "StatefulPartitionedCall/center_net_resnet_v1fpn_feature_extractor/functional_3/functional_1/conv3_block4_out/Relu", "op": "Relu", "input": ["StatefulPartitionedCall/center_net_resnet_v1fpn_feature_extractor/functional_3/functional_1/conv3_block4_add/add"], "attr": {"T": {"type": "DT_FLOAT"}}}, {"name": "StatefulPartitionedCall/center_net_resnet_v1fpn_feature_extractor/functional_3/conv2d_3/BiasAdd", "op": "_FusedConv2D", "input": ["StatefulPartitionedCall/center_net_resnet_v1fpn_feature_extractor/functional_3/functional_1/conv3_block4_out/Relu", "unknown_327", "unknown_328"], "device": "/device:CPU:0", "attr": {"explicit_paddings": {"list": {}}, "num_args": {"i": "1"}, "padding": {"s": "U0FNRQ=="}, "epsilon": {"f": 0.0}, "data_format": {"s": "TkhXQw=="}, "T": {"type": "DT_FLOAT"}, "fused_ops": {"list": {"s": ["Qmlhc0FkZA=="]}}, "dilations": {"list": {"i": ["1", "1", "1", "1"]}}, "use_cudnn_on_gpu": {"b": true}, "strides": {"list": {"i": ["1", "1", "1", "1"]}}}}, {"name": "StatefulPartitionedCall/center_net_resnet_v1fpn_feature_extractor/functional_3/functional_1/conv4_block1_0_bn/FusedBatchNormV3", "op": "_FusedConv2D", "input": ["StatefulPartitionedCall/center_net_resnet_v1fpn_feature_extractor/functional_3/functional_1/conv3_block4_out/Relu", "StatefulPartitionedCall/center_net_resnet_v1fpn_feature_extractor/functional_3/functional_1/conv4_block1_0_conv/Conv2D_weights", "StatefulPartitionedCall/center_net_resnet_v1fpn_feature_extractor/functional_3/functional_1/conv4_block1_0_conv/Conv2D_bn_offset"], "device": "/device:CPU:0", "attr": {"use_cudnn_on_gpu": {"b": true}, "epsilon": {"f": 0.0}, "explicit_paddings": {"list": {}}, "data_format": {"s": "TkhXQw=="}, "T": {"type": "DT_FLOAT"}, "strides": {"list": {"i": ["1", "2", "2", "1"]}}, "num_args": {"i": "1"}, "dilations": {"list": {"i": ["1", "1", "1", "1"]}}, "padding": {"s": "VkFMSUQ="}, "fused_ops": {"list": {"s": ["Qmlhc0FkZA=="]}}}}, {"name": "StatefulPartitionedCall/center_net_resnet_v1fpn_feature_extractor/functional_3/functional_1/conv4_block1_1_relu/Relu", "op": "_FusedConv2D", "input": ["StatefulPartitionedCall/center_net_resnet_v1fpn_feature_extractor/functional_3/functional_1/conv3_block4_out/Relu", "StatefulPartitionedCall/center_net_resnet_v1fpn_feature_extractor/functional_3/functional_1/conv4_block1_1_conv/Conv2D_weights", "StatefulPartitionedCall/center_net_resnet_v1fpn_feature_extractor/functional_3/functional_1/conv4_block1_1_conv/Conv2D_bn_offset"], "device": "/device:CPU:0", "attr": {"dilations": {"list": {"i": ["1", "1", "1", "1"]}}, "num_args": {"i": "1"}, "data_format": {"s": "TkhXQw=="}, "strides": {"list": {"i": ["1", "2", "2", "1"]}}, "padding": {"s": "VkFMSUQ="}, "use_cudnn_on_gpu": {"b": true}, "fused_ops": {"list": {"s": ["Qmlhc0FkZA==", "UmVsdQ=="]}}, "epsilon": {"f": 0.0}, "explicit_paddings": {"list": {}}, "T": {"type": "DT_FLOAT"}}}, {"name": "StatefulPartitionedCall/center_net_resnet_v1fpn_feature_extractor/functional_3/functional_1/conv4_block1_2_relu/Relu", "op": "_FusedConv2D", "input": ["StatefulPartitionedCall/center_net_resnet_v1fpn_feature_extractor/functional_3/functional_1/conv4_block1_1_relu/Relu", "StatefulPartitionedCall/center_net_resnet_v1fpn_feature_extractor/functional_3/functional_1/conv4_block1_2_conv/Conv2D_weights", "StatefulPartitionedCall/center_net_resnet_v1fpn_feature_extractor/functional_3/functional_1/conv4_block1_2_conv/Conv2D_bn_offset"], "device": "/device:CPU:0", "attr": {"dilations": {"list": {"i": ["1", "1", "1", "1"]}}, "fused_ops": {"list": {"s": ["Qmlhc0FkZA==", "UmVsdQ=="]}}, "use_cudnn_on_gpu": {"b": true}, "num_args": {"i": "1"}, "data_format": {"s": "TkhXQw=="}, "strides": {"list": {"i": ["1", "1", "1", "1"]}}, "padding": {"s": "U0FNRQ=="}, "epsilon": {"f": 0.0}, "T": {"type": "DT_FLOAT"}, "explicit_paddings": {"list": {}}}}, {"name": "StatefulPartitionedCall/center_net_resnet_v1fpn_feature_extractor/functional_3/functional_1/conv4_block1_3_bn/FusedBatchNormV3", "op": "_FusedConv2D", "input": ["StatefulPartitionedCall/center_net_resnet_v1fpn_feature_extractor/functional_3/functional_1/conv4_block1_2_relu/Relu", "StatefulPartitionedCall/center_net_resnet_v1fpn_feature_extractor/functional_3/functional_1/conv4_block1_3_conv/Conv2D_weights", "StatefulPartitionedCall/center_net_resnet_v1fpn_feature_extractor/functional_3/functional_1/conv4_block1_3_conv/Conv2D_bn_offset"], "device": "/device:CPU:0", "attr": {"dilations": {"list": {"i": ["1", "1", "1", "1"]}}, "num_args": {"i": "1"}, "explicit_paddings": {"list": {}}, "epsilon": {"f": 0.0}, "padding": {"s": "VkFMSUQ="}, "strides": {"list": {"i": ["1", "1", "1", "1"]}}, "T": {"type": "DT_FLOAT"}, "use_cudnn_on_gpu": {"b": true}, "data_format": {"s": "TkhXQw=="}, "fused_ops": {"list": {"s": ["Qmlhc0FkZA=="]}}}}, {"name": "StatefulPartitionedCall/center_net_resnet_v1fpn_feature_extractor/functional_3/functional_1/conv4_block1_add/add", "op": "AddV2", "input": ["StatefulPartitionedCall/center_net_resnet_v1fpn_feature_extractor/functional_3/functional_1/conv4_block1_0_bn/FusedBatchNormV3", "StatefulPartitionedCall/center_net_resnet_v1fpn_feature_extractor/functional_3/functional_1/conv4_block1_3_bn/FusedBatchNormV3"], "attr": {"T": {"type": "DT_FLOAT"}}}, {"name": "StatefulPartitionedCall/center_net_resnet_v1fpn_feature_extractor/functional_3/functional_1/conv4_block1_out/Relu", "op": "Relu", "input": ["StatefulPartitionedCall/center_net_resnet_v1fpn_feature_extractor/functional_3/functional_1/conv4_block1_add/add"], "attr": {"T": {"type": "DT_FLOAT"}}}, {"name": "StatefulPartitionedCall/center_net_resnet_v1fpn_feature_extractor/functional_3/functional_1/conv4_block2_1_relu/Relu", "op": "_FusedConv2D", "input": ["StatefulPartitionedCall/center_net_resnet_v1fpn_feature_extractor/functional_3/functional_1/conv4_block1_out/Relu", "StatefulPartitionedCall/center_net_resnet_v1fpn_feature_extractor/functional_3/functional_1/conv4_block2_1_conv/Conv2D_weights", "StatefulPartitionedCall/center_net_resnet_v1fpn_feature_extractor/functional_3/functional_1/conv4_block2_1_conv/Conv2D_bn_offset"], "device": "/device:CPU:0", "attr": {"num_args": {"i": "1"}, "explicit_paddings": {"list": {}}, "fused_ops": {"list": {"s": ["Qmlhc0FkZA==", "UmVsdQ=="]}}, "epsilon": {"f": 0.0}, "dilations": {"list": {"i": ["1", "1", "1", "1"]}}, "T": {"type": "DT_FLOAT"}, "strides": {"list": {"i": ["1", "1", "1", "1"]}}, "use_cudnn_on_gpu": {"b": true}, "padding": {"s": "VkFMSUQ="}, "data_format": {"s": "TkhXQw=="}}}, {"name": "StatefulPartitionedCall/center_net_resnet_v1fpn_feature_extractor/functional_3/functional_1/conv4_block2_2_relu/Relu", "op": "_FusedConv2D", "input": ["StatefulPartitionedCall/center_net_resnet_v1fpn_feature_extractor/functional_3/functional_1/conv4_block2_1_relu/Relu", "StatefulPartitionedCall/center_net_resnet_v1fpn_feature_extractor/functional_3/functional_1/conv4_block2_2_conv/Conv2D_weights", "StatefulPartitionedCall/center_net_resnet_v1fpn_feature_extractor/functional_3/functional_1/conv4_block2_2_conv/Conv2D_bn_offset"], "device": "/device:CPU:0", "attr": {"num_args": {"i": "1"}, "dilations": {"list": {"i": ["1", "1", "1", "1"]}}, "T": {"type": "DT_FLOAT"}, "strides": {"list": {"i": ["1", "1", "1", "1"]}}, "epsilon": {"f": 0.0}, "padding": {"s": "U0FNRQ=="}, "explicit_paddings": {"list": {}}, "use_cudnn_on_gpu": {"b": true}, "fused_ops": {"list": {"s": ["Qmlhc0FkZA==", "UmVsdQ=="]}}, "data_format": {"s": "TkhXQw=="}}}, {"name": "StatefulPartitionedCall/center_net_resnet_v1fpn_feature_extractor/functional_3/functional_1/conv4_block2_3_bn/FusedBatchNormV3", "op": "_FusedConv2D", "input": ["StatefulPartitionedCall/center_net_resnet_v1fpn_feature_extractor/functional_3/functional_1/conv4_block2_2_relu/Relu", "StatefulPartitionedCall/center_net_resnet_v1fpn_feature_extractor/functional_3/functional_1/conv4_block2_3_conv/Conv2D_weights", "StatefulPartitionedCall/center_net_resnet_v1fpn_feature_extractor/functional_3/functional_1/conv4_block2_3_conv/Conv2D_bn_offset"], "device": "/device:CPU:0", "attr": {"strides": {"list": {"i": ["1", "1", "1", "1"]}}, "num_args": {"i": "1"}, "dilations": {"list": {"i": ["1", "1", "1", "1"]}}, "fused_ops": {"list": {"s": ["Qmlhc0FkZA=="]}}, "epsilon": {"f": 0.0}, "use_cudnn_on_gpu": {"b": true}, "data_format": {"s": "TkhXQw=="}, "T": {"type": "DT_FLOAT"}, "padding": {"s": "VkFMSUQ="}, "explicit_paddings": {"list": {}}}}, {"name": "StatefulPartitionedCall/center_net_resnet_v1fpn_feature_extractor/functional_3/functional_1/conv4_block2_add/add", "op": "AddV2", "input": ["StatefulPartitionedCall/center_net_resnet_v1fpn_feature_extractor/functional_3/functional_1/conv4_block1_out/Relu", "StatefulPartitionedCall/center_net_resnet_v1fpn_feature_extractor/functional_3/functional_1/conv4_block2_3_bn/FusedBatchNormV3"], "attr": {"T": {"type": "DT_FLOAT"}}}, {"name": "StatefulPartitionedCall/center_net_resnet_v1fpn_feature_extractor/functional_3/functional_1/conv4_block2_out/Relu", "op": "Relu", "input": ["StatefulPartitionedCall/center_net_resnet_v1fpn_feature_extractor/functional_3/functional_1/conv4_block2_add/add"], "attr": {"T": {"type": "DT_FLOAT"}}}, {"name": "StatefulPartitionedCall/center_net_resnet_v1fpn_feature_extractor/functional_3/functional_1/conv4_block3_1_relu/Relu", "op": "_FusedConv2D", "input": ["StatefulPartitionedCall/center_net_resnet_v1fpn_feature_extractor/functional_3/functional_1/conv4_block2_out/Relu", "StatefulPartitionedCall/center_net_resnet_v1fpn_feature_extractor/functional_3/functional_1/conv4_block3_1_conv/Conv2D_weights", "StatefulPartitionedCall/center_net_resnet_v1fpn_feature_extractor/functional_3/functional_1/conv4_block3_1_conv/Conv2D_bn_offset"], "device": "/device:CPU:0", "attr": {"padding": {"s": "VkFMSUQ="}, "epsilon": {"f": 0.0}, "data_format": {"s": "TkhXQw=="}, "T": {"type": "DT_FLOAT"}, "explicit_paddings": {"list": {}}, "use_cudnn_on_gpu": {"b": true}, "fused_ops": {"list": {"s": ["Qmlhc0FkZA==", "UmVsdQ=="]}}, "num_args": {"i": "1"}, "dilations": {"list": {"i": ["1", "1", "1", "1"]}}, "strides": {"list": {"i": ["1", "1", "1", "1"]}}}}, {"name": "StatefulPartitionedCall/center_net_resnet_v1fpn_feature_extractor/functional_3/functional_1/conv4_block3_2_relu/Relu", "op": "_FusedConv2D", "input": ["StatefulPartitionedCall/center_net_resnet_v1fpn_feature_extractor/functional_3/functional_1/conv4_block3_1_relu/Relu", "StatefulPartitionedCall/center_net_resnet_v1fpn_feature_extractor/functional_3/functional_1/conv4_block3_2_conv/Conv2D_weights", "StatefulPartitionedCall/center_net_resnet_v1fpn_feature_extractor/functional_3/functional_1/conv4_block3_2_conv/Conv2D_bn_offset"], "device": "/device:CPU:0", "attr": {"fused_ops": {"list": {"s": ["Qmlhc0FkZA==", "UmVsdQ=="]}}, "T": {"type": "DT_FLOAT"}, "data_format": {"s": "TkhXQw=="}, "explicit_paddings": {"list": {}}, "use_cudnn_on_gpu": {"b": true}, "epsilon": {"f": 0.0}, "dilations": {"list": {"i": ["1", "1", "1", "1"]}}, "padding": {"s": "U0FNRQ=="}, "strides": {"list": {"i": ["1", "1", "1", "1"]}}, "num_args": {"i": "1"}}}, {"name": "StatefulPartitionedCall/center_net_resnet_v1fpn_feature_extractor/functional_3/functional_1/conv4_block3_3_bn/FusedBatchNormV3", "op": "_FusedConv2D", "input": ["StatefulPartitionedCall/center_net_resnet_v1fpn_feature_extractor/functional_3/functional_1/conv4_block3_2_relu/Relu", "StatefulPartitionedCall/center_net_resnet_v1fpn_feature_extractor/functional_3/functional_1/conv4_block3_3_conv/Conv2D_weights", "StatefulPartitionedCall/center_net_resnet_v1fpn_feature_extractor/functional_3/functional_1/conv4_block3_3_conv/Conv2D_bn_offset"], "device": "/device:CPU:0", "attr": {"epsilon": {"f": 0.0}, "T": {"type": "DT_FLOAT"}, "padding": {"s": "VkFMSUQ="}, "num_args": {"i": "1"}, "explicit_paddings": {"list": {}}, "dilations": {"list": {"i": ["1", "1", "1", "1"]}}, "strides": {"list": {"i": ["1", "1", "1", "1"]}}, "data_format": {"s": "TkhXQw=="}, "fused_ops": {"list": {"s": ["Qmlhc0FkZA=="]}}, "use_cudnn_on_gpu": {"b": true}}}, {"name": "StatefulPartitionedCall/center_net_resnet_v1fpn_feature_extractor/functional_3/functional_1/conv4_block3_add/add", "op": "AddV2", "input": ["StatefulPartitionedCall/center_net_resnet_v1fpn_feature_extractor/functional_3/functional_1/conv4_block2_out/Relu", "StatefulPartitionedCall/center_net_resnet_v1fpn_feature_extractor/functional_3/functional_1/conv4_block3_3_bn/FusedBatchNormV3"], "attr": {"T": {"type": "DT_FLOAT"}}}, {"name": "StatefulPartitionedCall/center_net_resnet_v1fpn_feature_extractor/functional_3/functional_1/conv4_block3_out/Relu", "op": "Relu", "input": ["StatefulPartitionedCall/center_net_resnet_v1fpn_feature_extractor/functional_3/functional_1/conv4_block3_add/add"], "attr": {"T": {"type": "DT_FLOAT"}}}, {"name": "StatefulPartitionedCall/center_net_resnet_v1fpn_feature_extractor/functional_3/functional_1/conv4_block4_1_relu/Relu", "op": "_FusedConv2D", "input": ["StatefulPartitionedCall/center_net_resnet_v1fpn_feature_extractor/functional_3/functional_1/conv4_block3_out/Relu", "StatefulPartitionedCall/center_net_resnet_v1fpn_feature_extractor/functional_3/functional_1/conv4_block4_1_conv/Conv2D_weights", "StatefulPartitionedCall/center_net_resnet_v1fpn_feature_extractor/functional_3/functional_1/conv4_block4_1_conv/Conv2D_bn_offset"], "device": "/device:CPU:0", "attr": {"explicit_paddings": {"list": {}}, "T": {"type": "DT_FLOAT"}, "dilations": {"list": {"i": ["1", "1", "1", "1"]}}, "num_args": {"i": "1"}, "epsilon": {"f": 0.0}, "data_format": {"s": "TkhXQw=="}, "padding": {"s": "VkFMSUQ="}, "fused_ops": {"list": {"s": ["Qmlhc0FkZA==", "UmVsdQ=="]}}, "strides": {"list": {"i": ["1", "1", "1", "1"]}}, "use_cudnn_on_gpu": {"b": true}}}, {"name": "StatefulPartitionedCall/center_net_resnet_v1fpn_feature_extractor/functional_3/functional_1/conv4_block4_2_relu/Relu", "op": "_FusedConv2D", "input": ["StatefulPartitionedCall/center_net_resnet_v1fpn_feature_extractor/functional_3/functional_1/conv4_block4_1_relu/Relu", "StatefulPartitionedCall/center_net_resnet_v1fpn_feature_extractor/functional_3/functional_1/conv4_block4_2_conv/Conv2D_weights", "StatefulPartitionedCall/center_net_resnet_v1fpn_feature_extractor/functional_3/functional_1/conv4_block4_2_conv/Conv2D_bn_offset"], "device": "/device:CPU:0", "attr": {"explicit_paddings": {"list": {}}, "use_cudnn_on_gpu": {"b": true}, "num_args": {"i": "1"}, "fused_ops": {"list": {"s": ["Qmlhc0FkZA==", "UmVsdQ=="]}}, "T": {"type": "DT_FLOAT"}, "dilations": {"list": {"i": ["1", "1", "1", "1"]}}, "epsilon": {"f": 0.0}, "padding": {"s": "U0FNRQ=="}, "data_format": {"s": "TkhXQw=="}, "strides": {"list": {"i": ["1", "1", "1", "1"]}}}}, {"name": "StatefulPartitionedCall/center_net_resnet_v1fpn_feature_extractor/functional_3/functional_1/conv4_block4_3_bn/FusedBatchNormV3", "op": "_FusedConv2D", "input": ["StatefulPartitionedCall/center_net_resnet_v1fpn_feature_extractor/functional_3/functional_1/conv4_block4_2_relu/Relu", "StatefulPartitionedCall/center_net_resnet_v1fpn_feature_extractor/functional_3/functional_1/conv4_block4_3_conv/Conv2D_weights", "StatefulPartitionedCall/center_net_resnet_v1fpn_feature_extractor/functional_3/functional_1/conv4_block4_3_conv/Conv2D_bn_offset"], "device": "/device:CPU:0", "attr": {"strides": {"list": {"i": ["1", "1", "1", "1"]}}, "padding": {"s": "VkFMSUQ="}, "data_format": {"s": "TkhXQw=="}, "use_cudnn_on_gpu": {"b": true}, "fused_ops": {"list": {"s": ["Qmlhc0FkZA=="]}}, "explicit_paddings": {"list": {}}, "epsilon": {"f": 0.0}, "num_args": {"i": "1"}, "T": {"type": "DT_FLOAT"}, "dilations": {"list": {"i": ["1", "1", "1", "1"]}}}}, {"name": "StatefulPartitionedCall/center_net_resnet_v1fpn_feature_extractor/functional_3/functional_1/conv4_block4_add/add", "op": "AddV2", "input": ["StatefulPartitionedCall/center_net_resnet_v1fpn_feature_extractor/functional_3/functional_1/conv4_block3_out/Relu", "StatefulPartitionedCall/center_net_resnet_v1fpn_feature_extractor/functional_3/functional_1/conv4_block4_3_bn/FusedBatchNormV3"], "attr": {"T": {"type": "DT_FLOAT"}}}, {"name": "StatefulPartitionedCall/center_net_resnet_v1fpn_feature_extractor/functional_3/functional_1/conv4_block4_out/Relu", "op": "Relu", "input": ["StatefulPartitionedCall/center_net_resnet_v1fpn_feature_extractor/functional_3/functional_1/conv4_block4_add/add"], "attr": {"T": {"type": "DT_FLOAT"}}}, {"name": "StatefulPartitionedCall/center_net_resnet_v1fpn_feature_extractor/functional_3/functional_1/conv4_block5_1_relu/Relu", "op": "_FusedConv2D", "input": ["StatefulPartitionedCall/center_net_resnet_v1fpn_feature_extractor/functional_3/functional_1/conv4_block4_out/Relu", "StatefulPartitionedCall/center_net_resnet_v1fpn_feature_extractor/functional_3/functional_1/conv4_block5_1_conv/Conv2D_weights", "StatefulPartitionedCall/center_net_resnet_v1fpn_feature_extractor/functional_3/functional_1/conv4_block5_1_conv/Conv2D_bn_offset"], "device": "/device:CPU:0", "attr": {"padding": {"s": "VkFMSUQ="}, "strides": {"list": {"i": ["1", "1", "1", "1"]}}, "T": {"type": "DT_FLOAT"}, "use_cudnn_on_gpu": {"b": true}, "fused_ops": {"list": {"s": ["Qmlhc0FkZA==", "UmVsdQ=="]}}, "num_args": {"i": "1"}, "explicit_paddings": {"list": {}}, "epsilon": {"f": 0.0}, "data_format": {"s": "TkhXQw=="}, "dilations": {"list": {"i": ["1", "1", "1", "1"]}}}}, {"name": "StatefulPartitionedCall/center_net_resnet_v1fpn_feature_extractor/functional_3/functional_1/conv4_block5_2_relu/Relu", "op": "_FusedConv2D", "input": ["StatefulPartitionedCall/center_net_resnet_v1fpn_feature_extractor/functional_3/functional_1/conv4_block5_1_relu/Relu", "StatefulPartitionedCall/center_net_resnet_v1fpn_feature_extractor/functional_3/functional_1/conv4_block5_2_conv/Conv2D_weights", "StatefulPartitionedCall/center_net_resnet_v1fpn_feature_extractor/functional_3/functional_1/conv4_block5_2_conv/Conv2D_bn_offset"], "device": "/device:CPU:0", "attr": {"use_cudnn_on_gpu": {"b": true}, "padding": {"s": "U0FNRQ=="}, "num_args": {"i": "1"}, "strides": {"list": {"i": ["1", "1", "1", "1"]}}, "explicit_paddings": {"list": {}}, "T": {"type": "DT_FLOAT"}, "dilations": {"list": {"i": ["1", "1", "1", "1"]}}, "data_format": {"s": "TkhXQw=="}, "epsilon": {"f": 0.0}, "fused_ops": {"list": {"s": ["Qmlhc0FkZA==", "UmVsdQ=="]}}}}, {"name": "StatefulPartitionedCall/center_net_resnet_v1fpn_feature_extractor/functional_3/functional_1/conv4_block5_3_bn/FusedBatchNormV3", "op": "_FusedConv2D", "input": ["StatefulPartitionedCall/center_net_resnet_v1fpn_feature_extractor/functional_3/functional_1/conv4_block5_2_relu/Relu", "StatefulPartitionedCall/center_net_resnet_v1fpn_feature_extractor/functional_3/functional_1/conv4_block5_3_conv/Conv2D_weights", "StatefulPartitionedCall/center_net_resnet_v1fpn_feature_extractor/functional_3/functional_1/conv4_block5_3_conv/Conv2D_bn_offset"], "device": "/device:CPU:0", "attr": {"fused_ops": {"list": {"s": ["Qmlhc0FkZA=="]}}, "strides": {"list": {"i": ["1", "1", "1", "1"]}}, "dilations": {"list": {"i": ["1", "1", "1", "1"]}}, "padding": {"s": "VkFMSUQ="}, "data_format": {"s": "TkhXQw=="}, "T": {"type": "DT_FLOAT"}, "explicit_paddings": {"list": {}}, "epsilon": {"f": 0.0}, "num_args": {"i": "1"}, "use_cudnn_on_gpu": {"b": true}}}, {"name": "StatefulPartitionedCall/center_net_resnet_v1fpn_feature_extractor/functional_3/functional_1/conv4_block5_add/add", "op": "AddV2", "input": ["StatefulPartitionedCall/center_net_resnet_v1fpn_feature_extractor/functional_3/functional_1/conv4_block4_out/Relu", "StatefulPartitionedCall/center_net_resnet_v1fpn_feature_extractor/functional_3/functional_1/conv4_block5_3_bn/FusedBatchNormV3"], "attr": {"T": {"type": "DT_FLOAT"}}}, {"name": "StatefulPartitionedCall/center_net_resnet_v1fpn_feature_extractor/functional_3/functional_1/conv4_block5_out/Relu", "op": "Relu", "input": ["StatefulPartitionedCall/center_net_resnet_v1fpn_feature_extractor/functional_3/functional_1/conv4_block5_add/add"], "attr": {"T": {"type": "DT_FLOAT"}}}, {"name": "StatefulPartitionedCall/center_net_resnet_v1fpn_feature_extractor/functional_3/functional_1/conv4_block6_1_relu/Relu", "op": "_FusedConv2D", "input": ["StatefulPartitionedCall/center_net_resnet_v1fpn_feature_extractor/functional_3/functional_1/conv4_block5_out/Relu", "StatefulPartitionedCall/center_net_resnet_v1fpn_feature_extractor/functional_3/functional_1/conv4_block6_1_conv/Conv2D_weights", "StatefulPartitionedCall/center_net_resnet_v1fpn_feature_extractor/functional_3/functional_1/conv4_block6_1_conv/Conv2D_bn_offset"], "device": "/device:CPU:0", "attr": {"num_args": {"i": "1"}, "dilations": {"list": {"i": ["1", "1", "1", "1"]}}, "epsilon": {"f": 0.0}, "strides": {"list": {"i": ["1", "1", "1", "1"]}}, "explicit_paddings": {"list": {}}, "data_format": {"s": "TkhXQw=="}, "T": {"type": "DT_FLOAT"}, "use_cudnn_on_gpu": {"b": true}, "padding": {"s": "VkFMSUQ="}, "fused_ops": {"list": {"s": ["Qmlhc0FkZA==", "UmVsdQ=="]}}}}, {"name": "StatefulPartitionedCall/center_net_resnet_v1fpn_feature_extractor/functional_3/functional_1/conv4_block6_2_relu/Relu", "op": "_FusedConv2D", "input": ["StatefulPartitionedCall/center_net_resnet_v1fpn_feature_extractor/functional_3/functional_1/conv4_block6_1_relu/Relu", "StatefulPartitionedCall/center_net_resnet_v1fpn_feature_extractor/functional_3/functional_1/conv4_block6_2_conv/Conv2D_weights", "StatefulPartitionedCall/center_net_resnet_v1fpn_feature_extractor/functional_3/functional_1/conv4_block6_2_conv/Conv2D_bn_offset"], "device": "/device:CPU:0", "attr": {"data_format": {"s": "TkhXQw=="}, "dilations": {"list": {"i": ["1", "1", "1", "1"]}}, "epsilon": {"f": 0.0}, "use_cudnn_on_gpu": {"b": true}, "num_args": {"i": "1"}, "fused_ops": {"list": {"s": ["Qmlhc0FkZA==", "UmVsdQ=="]}}, "T": {"type": "DT_FLOAT"}, "padding": {"s": "U0FNRQ=="}, "explicit_paddings": {"list": {}}, "strides": {"list": {"i": ["1", "1", "1", "1"]}}}}, {"name": "StatefulPartitionedCall/center_net_resnet_v1fpn_feature_extractor/functional_3/functional_1/conv4_block6_3_bn/FusedBatchNormV3", "op": "_FusedConv2D", "input": ["StatefulPartitionedCall/center_net_resnet_v1fpn_feature_extractor/functional_3/functional_1/conv4_block6_2_relu/Relu", "StatefulPartitionedCall/center_net_resnet_v1fpn_feature_extractor/functional_3/functional_1/conv4_block6_3_conv/Conv2D_weights", "StatefulPartitionedCall/center_net_resnet_v1fpn_feature_extractor/functional_3/functional_1/conv4_block6_3_conv/Conv2D_bn_offset"], "device": "/device:CPU:0", "attr": {"strides": {"list": {"i": ["1", "1", "1", "1"]}}, "padding": {"s": "VkFMSUQ="}, "fused_ops": {"list": {"s": ["Qmlhc0FkZA=="]}}, "use_cudnn_on_gpu": {"b": true}, "num_args": {"i": "1"}, "dilations": {"list": {"i": ["1", "1", "1", "1"]}}, "explicit_paddings": {"list": {}}, "epsilon": {"f": 0.0}, "T": {"type": "DT_FLOAT"}, "data_format": {"s": "TkhXQw=="}}}, {"name": "StatefulPartitionedCall/center_net_resnet_v1fpn_feature_extractor/functional_3/functional_1/conv4_block6_add/add", "op": "AddV2", "input": ["StatefulPartitionedCall/center_net_resnet_v1fpn_feature_extractor/functional_3/functional_1/conv4_block5_out/Relu", "StatefulPartitionedCall/center_net_resnet_v1fpn_feature_extractor/functional_3/functional_1/conv4_block6_3_bn/FusedBatchNormV3"], "attr": {"T": {"type": "DT_FLOAT"}}}, {"name": "StatefulPartitionedCall/center_net_resnet_v1fpn_feature_extractor/functional_3/functional_1/conv4_block6_out/Relu", "op": "Relu", "input": ["StatefulPartitionedCall/center_net_resnet_v1fpn_feature_extractor/functional_3/functional_1/conv4_block6_add/add"], "attr": {"T": {"type": "DT_FLOAT"}}}, {"name": "StatefulPartitionedCall/center_net_resnet_v1fpn_feature_extractor/functional_3/conv2d_1/BiasAdd", "op": "_FusedConv2D", "input": ["StatefulPartitionedCall/center_net_resnet_v1fpn_feature_extractor/functional_3/functional_1/conv4_block6_out/Relu", "unknown_319", "unknown_320"], "device": "/device:CPU:0", "attr": {"explicit_paddings": {"list": {}}, "data_format": {"s": "TkhXQw=="}, "dilations": {"list": {"i": ["1", "1", "1", "1"]}}, "use_cudnn_on_gpu": {"b": true}, "strides": {"list": {"i": ["1", "1", "1", "1"]}}, "num_args": {"i": "1"}, "fused_ops": {"list": {"s": ["Qmlhc0FkZA=="]}}, "epsilon": {"f": 0.0}, "padding": {"s": "U0FNRQ=="}, "T": {"type": "DT_FLOAT"}}}, {"name": "StatefulPartitionedCall/center_net_resnet_v1fpn_feature_extractor/functional_3/functional_1/conv5_block1_0_bn/FusedBatchNormV3", "op": "_FusedConv2D", "input": ["StatefulPartitionedCall/center_net_resnet_v1fpn_feature_extractor/functional_3/functional_1/conv4_block6_out/Relu", "StatefulPartitionedCall/center_net_resnet_v1fpn_feature_extractor/functional_3/functional_1/conv5_block1_0_conv/Conv2D_weights", "StatefulPartitionedCall/center_net_resnet_v1fpn_feature_extractor/functional_3/functional_1/conv5_block1_0_conv/Conv2D_bn_offset"], "device": "/device:CPU:0", "attr": {"epsilon": {"f": 0.0}, "padding": {"s": "VkFMSUQ="}, "fused_ops": {"list": {"s": ["Qmlhc0FkZA=="]}}, "T": {"type": "DT_FLOAT"}, "use_cudnn_on_gpu": {"b": true}, "strides": {"list": {"i": ["1", "2", "2", "1"]}}, "dilations": {"list": {"i": ["1", "1", "1", "1"]}}, "data_format": {"s": "TkhXQw=="}, "num_args": {"i": "1"}, "explicit_paddings": {"list": {}}}}, {"name": "StatefulPartitionedCall/center_net_resnet_v1fpn_feature_extractor/functional_3/functional_1/conv5_block1_1_relu/Relu", "op": "_FusedConv2D", "input": ["StatefulPartitionedCall/center_net_resnet_v1fpn_feature_extractor/functional_3/functional_1/conv4_block6_out/Relu", "StatefulPartitionedCall/center_net_resnet_v1fpn_feature_extractor/functional_3/functional_1/conv5_block1_1_conv/Conv2D_weights", "StatefulPartitionedCall/center_net_resnet_v1fpn_feature_extractor/functional_3/functional_1/conv5_block1_1_conv/Conv2D_bn_offset"], "device": "/device:CPU:0", "attr": {"strides": {"list": {"i": ["1", "2", "2", "1"]}}, "padding": {"s": "VkFMSUQ="}, "fused_ops": {"list": {"s": ["Qmlhc0FkZA==", "UmVsdQ=="]}}, "data_format": {"s": "TkhXQw=="}, "explicit_paddings": {"list": {}}, "T": {"type": "DT_FLOAT"}, "use_cudnn_on_gpu": {"b": true}, "num_args": {"i": "1"}, "epsilon": {"f": 0.0}, "dilations": {"list": {"i": ["1", "1", "1", "1"]}}}}, {"name": "StatefulPartitionedCall/center_net_resnet_v1fpn_feature_extractor/functional_3/functional_1/conv5_block1_2_relu/Relu", "op": "_FusedConv2D", "input": ["StatefulPartitionedCall/center_net_resnet_v1fpn_feature_extractor/functional_3/functional_1/conv5_block1_1_relu/Relu", "StatefulPartitionedCall/center_net_resnet_v1fpn_feature_extractor/functional_3/functional_1/conv5_block1_2_conv/Conv2D_weights", "StatefulPartitionedCall/center_net_resnet_v1fpn_feature_extractor/functional_3/functional_1/conv5_block1_2_conv/Conv2D_bn_offset"], "device": "/device:CPU:0", "attr": {"explicit_paddings": {"list": {}}, "T": {"type": "DT_FLOAT"}, "strides": {"list": {"i": ["1", "1", "1", "1"]}}, "fused_ops": {"list": {"s": ["Qmlhc0FkZA==", "UmVsdQ=="]}}, "epsilon": {"f": 0.0}, "data_format": {"s": "TkhXQw=="}, "dilations": {"list": {"i": ["1", "1", "1", "1"]}}, "use_cudnn_on_gpu": {"b": true}, "padding": {"s": "U0FNRQ=="}, "num_args": {"i": "1"}}}, {"name": "StatefulPartitionedCall/center_net_resnet_v1fpn_feature_extractor/functional_3/functional_1/conv5_block1_3_bn/FusedBatchNormV3", "op": "_FusedConv2D", "input": ["StatefulPartitionedCall/center_net_resnet_v1fpn_feature_extractor/functional_3/functional_1/conv5_block1_2_relu/Relu", "StatefulPartitionedCall/center_net_resnet_v1fpn_feature_extractor/functional_3/functional_1/conv5_block1_3_conv/Conv2D_weights", "StatefulPartitionedCall/center_net_resnet_v1fpn_feature_extractor/functional_3/functional_1/conv5_block1_3_conv/Conv2D_bn_offset"], "device": "/device:CPU:0", "attr": {"data_format": {"s": "TkhXQw=="}, "dilations": {"list": {"i": ["1", "1", "1", "1"]}}, "use_cudnn_on_gpu": {"b": true}, "T": {"type": "DT_FLOAT"}, "epsilon": {"f": 0.0}, "num_args": {"i": "1"}, "strides": {"list": {"i": ["1", "1", "1", "1"]}}, "padding": {"s": "VkFMSUQ="}, "explicit_paddings": {"list": {}}, "fused_ops": {"list": {"s": ["Qmlhc0FkZA=="]}}}}, {"name": "StatefulPartitionedCall/center_net_resnet_v1fpn_feature_extractor/functional_3/functional_1/conv5_block1_add/add", "op": "AddV2", "input": ["StatefulPartitionedCall/center_net_resnet_v1fpn_feature_extractor/functional_3/functional_1/conv5_block1_0_bn/FusedBatchNormV3", "StatefulPartitionedCall/center_net_resnet_v1fpn_feature_extractor/functional_3/functional_1/conv5_block1_3_bn/FusedBatchNormV3"], "attr": {"T": {"type": "DT_FLOAT"}}}, {"name": "StatefulPartitionedCall/center_net_resnet_v1fpn_feature_extractor/functional_3/functional_1/conv5_block1_out/Relu", "op": "Relu", "input": ["StatefulPartitionedCall/center_net_resnet_v1fpn_feature_extractor/functional_3/functional_1/conv5_block1_add/add"], "attr": {"T": {"type": "DT_FLOAT"}}}, {"name": "StatefulPartitionedCall/center_net_resnet_v1fpn_feature_extractor/functional_3/functional_1/conv5_block2_1_relu/Relu", "op": "_FusedConv2D", "input": ["StatefulPartitionedCall/center_net_resnet_v1fpn_feature_extractor/functional_3/functional_1/conv5_block1_out/Relu", "StatefulPartitionedCall/center_net_resnet_v1fpn_feature_extractor/functional_3/functional_1/conv5_block2_1_conv/Conv2D_weights", "StatefulPartitionedCall/center_net_resnet_v1fpn_feature_extractor/functional_3/functional_1/conv5_block2_1_conv/Conv2D_bn_offset"], "device": "/device:CPU:0", "attr": {"padding": {"s": "VkFMSUQ="}, "use_cudnn_on_gpu": {"b": true}, "data_format": {"s": "TkhXQw=="}, "epsilon": {"f": 0.0}, "T": {"type": "DT_FLOAT"}, "strides": {"list": {"i": ["1", "1", "1", "1"]}}, "dilations": {"list": {"i": ["1", "1", "1", "1"]}}, "explicit_paddings": {"list": {}}, "num_args": {"i": "1"}, "fused_ops": {"list": {"s": ["Qmlhc0FkZA==", "UmVsdQ=="]}}}}, {"name": "StatefulPartitionedCall/center_net_resnet_v1fpn_feature_extractor/functional_3/functional_1/conv5_block2_2_relu/Relu", "op": "_FusedConv2D", "input": ["StatefulPartitionedCall/center_net_resnet_v1fpn_feature_extractor/functional_3/functional_1/conv5_block2_1_relu/Relu", "StatefulPartitionedCall/center_net_resnet_v1fpn_feature_extractor/functional_3/functional_1/conv5_block2_2_conv/Conv2D_weights", "StatefulPartitionedCall/center_net_resnet_v1fpn_feature_extractor/functional_3/functional_1/conv5_block2_2_conv/Conv2D_bn_offset"], "device": "/device:CPU:0", "attr": {"epsilon": {"f": 0.0}, "num_args": {"i": "1"}, "data_format": {"s": "TkhXQw=="}, "fused_ops": {"list": {"s": ["Qmlhc0FkZA==", "UmVsdQ=="]}}, "use_cudnn_on_gpu": {"b": true}, "explicit_paddings": {"list": {}}, "dilations": {"list": {"i": ["1", "1", "1", "1"]}}, "T": {"type": "DT_FLOAT"}, "padding": {"s": "U0FNRQ=="}, "strides": {"list": {"i": ["1", "1", "1", "1"]}}}}, {"name": "StatefulPartitionedCall/center_net_resnet_v1fpn_feature_extractor/functional_3/functional_1/conv5_block2_3_bn/FusedBatchNormV3", "op": "_FusedConv2D", "input": ["StatefulPartitionedCall/center_net_resnet_v1fpn_feature_extractor/functional_3/functional_1/conv5_block2_2_relu/Relu", "StatefulPartitionedCall/center_net_resnet_v1fpn_feature_extractor/functional_3/functional_1/conv5_block2_3_conv/Conv2D_weights", "StatefulPartitionedCall/center_net_resnet_v1fpn_feature_extractor/functional_3/functional_1/conv5_block2_3_conv/Conv2D_bn_offset"], "device": "/device:CPU:0", "attr": {"epsilon": {"f": 0.0}, "strides": {"list": {"i": ["1", "1", "1", "1"]}}, "padding": {"s": "VkFMSUQ="}, "fused_ops": {"list": {"s": ["Qmlhc0FkZA=="]}}, "T": {"type": "DT_FLOAT"}, "explicit_paddings": {"list": {}}, "data_format": {"s": "TkhXQw=="}, "dilations": {"list": {"i": ["1", "1", "1", "1"]}}, "use_cudnn_on_gpu": {"b": true}, "num_args": {"i": "1"}}}, {"name": "StatefulPartitionedCall/center_net_resnet_v1fpn_feature_extractor/functional_3/functional_1/conv5_block2_add/add", "op": "AddV2", "input": ["StatefulPartitionedCall/center_net_resnet_v1fpn_feature_extractor/functional_3/functional_1/conv5_block1_out/Relu", "StatefulPartitionedCall/center_net_resnet_v1fpn_feature_extractor/functional_3/functional_1/conv5_block2_3_bn/FusedBatchNormV3"], "attr": {"T": {"type": "DT_FLOAT"}}}, {"name": "StatefulPartitionedCall/center_net_resnet_v1fpn_feature_extractor/functional_3/functional_1/conv5_block2_out/Relu", "op": "Relu", "input": ["StatefulPartitionedCall/center_net_resnet_v1fpn_feature_extractor/functional_3/functional_1/conv5_block2_add/add"], "attr": {"T": {"type": "DT_FLOAT"}}}, {"name": "StatefulPartitionedCall/center_net_resnet_v1fpn_feature_extractor/functional_3/functional_1/conv5_block3_1_relu/Relu", "op": "_FusedConv2D", "input": ["StatefulPartitionedCall/center_net_resnet_v1fpn_feature_extractor/functional_3/functional_1/conv5_block2_out/Relu", "StatefulPartitionedCall/center_net_resnet_v1fpn_feature_extractor/functional_3/functional_1/conv5_block3_1_conv/Conv2D_weights", "StatefulPartitionedCall/center_net_resnet_v1fpn_feature_extractor/functional_3/functional_1/conv5_block3_1_conv/Conv2D_bn_offset"], "device": "/device:CPU:0", "attr": {"epsilon": {"f": 0.0}, "T": {"type": "DT_FLOAT"}, "use_cudnn_on_gpu": {"b": true}, "padding": {"s": "VkFMSUQ="}, "data_format": {"s": "TkhXQw=="}, "fused_ops": {"list": {"s": ["Qmlhc0FkZA==", "UmVsdQ=="]}}, "strides": {"list": {"i": ["1", "1", "1", "1"]}}, "explicit_paddings": {"list": {}}, "num_args": {"i": "1"}, "dilations": {"list": {"i": ["1", "1", "1", "1"]}}}}, {"name": "StatefulPartitionedCall/center_net_resnet_v1fpn_feature_extractor/functional_3/functional_1/conv5_block3_2_relu/Relu", "op": "_FusedConv2D", "input": ["StatefulPartitionedCall/center_net_resnet_v1fpn_feature_extractor/functional_3/functional_1/conv5_block3_1_relu/Relu", "StatefulPartitionedCall/center_net_resnet_v1fpn_feature_extractor/functional_3/functional_1/conv5_block3_2_conv/Conv2D_weights", "StatefulPartitionedCall/center_net_resnet_v1fpn_feature_extractor/functional_3/functional_1/conv5_block3_2_conv/Conv2D_bn_offset"], "device": "/device:CPU:0", "attr": {"explicit_paddings": {"list": {}}, "T": {"type": "DT_FLOAT"}, "num_args": {"i": "1"}, "epsilon": {"f": 0.0}, "strides": {"list": {"i": ["1", "1", "1", "1"]}}, "padding": {"s": "U0FNRQ=="}, "dilations": {"list": {"i": ["1", "1", "1", "1"]}}, "fused_ops": {"list": {"s": ["Qmlhc0FkZA==", "UmVsdQ=="]}}, "use_cudnn_on_gpu": {"b": true}, "data_format": {"s": "TkhXQw=="}}}, {"name": "StatefulPartitionedCall/center_net_resnet_v1fpn_feature_extractor/functional_3/functional_1…
T"}}}, {"name": "StatefulPartitionedCall/truediv_2", "op": "Mul", "input": ["StatefulPartitionedCall/unstack_1:1", "ConstantFolding/StatefulPartitionedCall/truediv_2_recip"], "attr": {"T": {"type": "DT_FLOAT"}}}, {"name": "StatefulPartitionedCall/truediv_4", "op": "Mul", "input": ["StatefulPartitionedCall/unstack_1:1", "ConstantFolding/StatefulPartitionedCall/truediv_4_recip"], "attr": {"T": {"type": "DT_FLOAT"}}}, {"name": "StatefulPartitionedCall/Assert_3/AssertGuard/branch_executed/_405", "op": "Merge", "input": ["StatefulPartitionedCall/Assert_3/AssertGuard/pivot_t/_401", "StatefulPartitionedCall/Assert_3/AssertGuard/pivot_f/_400", "^Func/StatefulPartitionedCall/Assert_3/AssertGuard/else/_398/input/_460", "^Func/StatefulPartitionedCall/Assert_3/AssertGuard/else/_398/input/_459"], "attr": {"N": {"i": "2"}, "T": {"type": "DT_BOOL"}}}, {"name": "StatefulPartitionedCall/sub_2", "op": "Sub", "input": ["StatefulPartitionedCall/add_1", "StatefulPartitionedCall/truediv_1"], "attr": {"T": {"type": "DT_FLOAT"}}}, {"name": "StatefulPartitionedCall/ArithmeticOptimizer/AddOpsRewrite_add_4", "op": "AddN", "input": ["StatefulPartitionedCall/Cast_2", "StatefulPartitionedCall/unstack_2", "StatefulPartitionedCall/truediv_3"], "attr": {"N": {"i": "3"}, "_grappler_ArithmeticOptimizer_AddOpsRewriteStage": {"b": true}, "T": {"type": "DT_FLOAT"}}}, {"name": "StatefulPartitionedCall/sub_3", "op": "Sub", "input": ["StatefulPartitionedCall/add_2", "StatefulPartitionedCall/truediv_2"], "attr": {"T": {"type": "DT_FLOAT"}}}, {"name": "StatefulPartitionedCall/ArithmeticOptimizer/AddOpsRewrite_add_6", "op": "AddN", "input": ["StatefulPartitionedCall/Cast_3", "StatefulPartitionedCall/unstack_2:1", "StatefulPartitionedCall/truediv_4"], "attr": {"T": {"type": "DT_FLOAT"}, "N": {"i": "3"}, "_grappler_ArithmeticOptimizer_AddOpsRewriteStage": {"b": true}}}, {"name": "StatefulPartitionedCall/stack_2", "op": "Pack", "input": ["StatefulPartitionedCall/sub_2", "StatefulPartitionedCall/sub_3", "StatefulPartitionedCall/ArithmeticOptimizer/AddOpsRewrite_add_4", "StatefulPartitionedCall/ArithmeticOptimizer/AddOpsRewrite_add_6"], "attr": {"N": {"i": "4"}, "axis": {"i": "2"}, "T": {"type": "DT_FLOAT"}}}, {"name": "StatefulPartitionedCall/unstack_3", "op": "Unpack", "input": ["StatefulPartitionedCall/stack_2"], "attr": {"T": {"type": "DT_FLOAT"}, "axis": {"i": "0"}, "num": {"i": "1"}}}, {"name": "StatefulPartitionedCall/Scale/split", "op": "Split", "input": ["StatefulPartitionedCall/Scale/split/split_dim", "StatefulPartitionedCall/unstack_3"], "attr": {"T": {"type": "DT_FLOAT"}, "num_split": {"i": "4"}}}, {"name": "StatefulPartitionedCall/Scale/mul", "op": "Mul", "input": ["StatefulPartitionedCall/Scale/Cast", "StatefulPartitionedCall/Scale/split"], "attr": {"T": {"type": "DT_FLOAT"}}}, {"name": "StatefulPartitionedCall/Scale/mul_2", "op": "Mul", "input": ["StatefulPartitionedCall/Scale/Cast_1", "StatefulPartitionedCall/Scale/split:1"], "attr": {"T": {"type": "DT_FLOAT"}}}, {"name": "StatefulPartitionedCall/Scale/mul_1", "op": "Mul", "input": ["StatefulPartitionedCall/Scale/Cast", "StatefulPartitionedCall/Scale/split:2"], "attr": {"T": {"type": "DT_FLOAT"}}}, {"name": "StatefulPartitionedCall/Scale/mul_3", "op": "Mul", "input": ["StatefulPartitionedCall/Scale/Cast_1", "StatefulPartitionedCall/Scale/split:3"], "attr": {"T": {"type": "DT_FLOAT"}}}, {"name": "StatefulPartitionedCall/Scale/concat", "op": "ConcatV2", "input": ["StatefulPartitionedCall/Scale/mul", "StatefulPartitionedCall/Scale/mul_2", "StatefulPartitionedCall/Scale/mul_1", "StatefulPartitionedCall/Scale/mul_3", "StatefulPartitionedCall/Scale/concat/axis"], "attr": {"N": {"i": "4"}, "Tidx": {"type": "DT_INT32"}, "T": {"type": "DT_FLOAT"}}}, {"name": "StatefulPartitionedCall/ToNormalizedCoordinates/Scale/split", "op": "Split", "input": ["StatefulPartitionedCall/ToNormalizedCoordinates/Scale/split/split_dim", "StatefulPartitionedCall/Scale/concat"], "attr": {"T": {"type": "DT_FLOAT"}, "num_split": {"i": "4"}}}, {"name": "StatefulPartitionedCall/ToNormalizedCoordinates/Max", "op": "Max", "input": ["StatefulPartitionedCall/Scale/concat", "StatefulPartitionedCall/ToNormalizedCoordinates/Const"], "attr": {"Tidx": {"type": "DT_INT32"}, "keep_dims": {"b": false}, "T": {"type": "DT_FLOAT"}}}, {"name": "StatefulPartitionedCall/ToNormalizedCoordinates/Scale/mul", "op": "Mul", "input": ["StatefulPartitionedCall/ToNormalizedCoordinates/truediv", "StatefulPartitionedCall/ToNormalizedCoordinates/Scale/split"], "attr": {"T": {"type": "DT_FLOAT"}}}, {"name": "StatefulPartitionedCall/ToNormalizedCoordinates/Scale/mul_1", "op": "Mul", "input": ["StatefulPartitionedCall/ToNormalizedCoordinates/truediv", "StatefulPartitionedCall/ToNormalizedCoordinates/Scale/split:2"], "attr": {"T": {"type": "DT_FLOAT"}}}, {"name": "StatefulPartitionedCall/ToNormalizedCoordinates/Greater", "op": "Greater", "input": ["StatefulPartitionedCall/ToNormalizedCoordinates/Max", "StatefulPartitionedCall/ToNormalizedCoordinates/Greater/y"], "attr": {"T": {"type": "DT_FLOAT"}}}, {"name": "StatefulPartitionedCall/ToNormalizedCoordinates/Assert/AssertGuard/switch_pred/_408", "op": "Switch", "input": ["StatefulPartitionedCall/ToNormalizedCoordinates/Greater", "StatefulPartitionedCall/ToNormalizedCoordinates/Greater", "^StatefulPartitionedCall/Assert_3/AssertGuard/branch_executed/_405"], "attr": {"T": {"type": "DT_BOOL"}}}, {"name": "StatefulPartitionedCall/ToNormalizedCoordinates/Assert/AssertGuard/StatefulPartitionedCall/ToNormalizedCoordinates/Greater/_411", "op": "Switch", "input": ["StatefulPartitionedCall/ToNormalizedCoordinates/Greater", "StatefulPartitionedCall/ToNormalizedCoordinates/Greater"], "attr": {"T": {"type": "DT_BOOL"}}}, {"name": "StatefulPartitionedCall/ToNormalizedCoordinates/Assert/AssertGuard/StatefulPartitionedCall/ToNormalizedCoordinates/Max/_412", "op": "Switch", "input": ["StatefulPartitionedCall/ToNormalizedCoordinates/Max", "StatefulPartitionedCall/ToNormalizedCoordinates/Greater"], "attr": {"T": {"type": "DT_FLOAT"}}}, {"name": "ConstantFoldingCtrl/StatefulPartitionedCall/ToNormalizedCoordinates/Assert/AssertGuard/switch_pred/_408_0", "op": "Identity", "input": ["StatefulPartitionedCall/ToNormalizedCoordinates/Assert/AssertGuard/switch_pred/_408"], "attr": {"T": {"type": "DT_BOOL"}}}, {"name": "ConstantFoldingCtrl/StatefulPartitionedCall/ToNormalizedCoordinates/Assert/AssertGuard/switch_pred/_408_1", "op": "Identity", "input": ["StatefulPartitionedCall/ToNormalizedCoordinates/Assert/AssertGuard/switch_pred/_408:1"], "attr": {"T": {"type": "DT_BOOL"}}}, {"name": "ConstantFoldingCtrl/StatefulPartitionedCall/ToNormalizedCoordinates/Assert/AssertGuard/StatefulPartitionedCall/ToNormalizedCoordinates/Greater/_411_0", "op": "Identity", "input": ["StatefulPartitionedCall/ToNormalizedCoordinates/Assert/AssertGuard/StatefulPartitionedCall/ToNormalizedCoordinates/Greater/_411"], "attr": {"T": {"type": "DT_BOOL"}}}, {"name": "ConstantFoldingCtrl/StatefulPartitionedCall/ToNormalizedCoordinates/Assert/AssertGuard/StatefulPartitionedCall/ToNormalizedCoordinates/Greater/_411_1", "op": "Identity", "input": ["StatefulPartitionedCall/ToNormalizedCoordinates/Assert/AssertGuard/StatefulPartitionedCall/ToNormalizedCoordinates/Greater/_411:1"], "attr": {"T": {"type": "DT_BOOL"}}}, {"name": "StatefulPartitionedCall/ToNormalizedCoordinates/Assert/AssertGuard/pivot_f/_409", "op": "Const", "input": ["^ConstantFoldingCtrl/StatefulPartitionedCall/ToNormalizedCoordinates/Assert/AssertGuard/switch_pred/_408_0"], "attr": {"dtype": {"type": "DT_BOOL"}, "value": {"tensor": {"dtype": "DT_BOOL", "tensorShape": {}}}}}, {"name": "StatefulPartitionedCall/ToNormalizedCoordinates/Assert/AssertGuard/pivot_t/_410", "op": "Const", "input": ["^ConstantFoldingCtrl/StatefulPartitionedCall/ToNormalizedCoordinates/Assert/AssertGuard/switch_pred/_408_1"], "attr": {"value": {"tensor": {"dtype": "DT_BOOL", "tensorShape": {}}}, "dtype": {"type": "DT_BOOL"}}}, {"name": "Func/StatefulPartitionedCall/ToNormalizedCoordinates/Assert/AssertGuard/else/_407/input/_470", "op": "Identity", "input": ["StatefulPartitionedCall/ToNormalizedCoordinates/Assert/AssertGuard/StatefulPartitionedCall/ToNormalizedCoordinates/Max/_412", "^StatefulPartitionedCall/ToNormalizedCoordinates/Assert/AssertGuard/pivot_f/_409"], "attr": {"T": {"type": "DT_FLOAT"}}}, {"name": "Func/StatefulPartitionedCall/ToNormalizedCoordinates/Assert/AssertGuard/then/_406/output/_466", "op": "Const", "input": ["^ConstantFoldingCtrl/StatefulPartitionedCall/ToNormalizedCoordinates/Assert/AssertGuard/StatefulPartitionedCall/ToNormalizedCoordinates/Greater/_411_1", "^StatefulPartitionedCall/ToNormalizedCoordinates/Assert/AssertGuard/pivot_t/_410"], "attr": {"value": {"tensor": {"dtype": "DT_BOOL", "tensorShape": {}}}, "dtype": {"type": "DT_BOOL"}}}, {"name": "Func/StatefulPartitionedCall/ToNormalizedCoordinates/Assert/AssertGuard/else/_407/output/_471", "op": "Const", "input": ["^Func/StatefulPartitionedCall/ToNormalizedCoordinates/Assert/AssertGuard/else/_407/input/_470", "^ConstantFoldingCtrl/StatefulPartitionedCall/ToNormalizedCoordinates/Assert/AssertGuard/StatefulPartitionedCall/ToNormalizedCoordinates/Greater/_411_0"], "attr": {"value": {"tensor": {"dtype": "DT_BOOL", "tensorShape": {}}}, "dtype": {"type": "DT_BOOL"}}}, {"name": "StatefulPartitionedCall/ToNormalizedCoordinates/Assert/AssertGuard/branch_executed/_414", "op": "Merge", "input": ["StatefulPartitionedCall/ToNormalizedCoordinates/Assert/AssertGuard/pivot_t/_410", "StatefulPartitionedCall/ToNormalizedCoordinates/Assert/AssertGuard/pivot_f/_409", "^Func/StatefulPartitionedCall/ToNormalizedCoordinates/Assert/AssertGuard/else/_407/input/_470", "^ConstantFoldingCtrl/StatefulPartitionedCall/ToNormalizedCoordinates/Assert/AssertGuard/StatefulPartitionedCall/ToNormalizedCoordinates/Greater/_411_0"], "attr": {"T": {"type": "DT_BOOL"}, "N": {"i": "2"}}}, {"name": "StatefulPartitionedCall/ToNormalizedCoordinates/Assert/AssertGuard/output/_413", "op": "Merge", "input": ["Func/StatefulPartitionedCall/ToNormalizedCoordinates/Assert/AssertGuard/then/_406/output/_466", "Func/StatefulPartitionedCall/ToNormalizedCoordinates/Assert/AssertGuard/else/_407/output/_471"], "attr": {"T": {"type": "DT_BOOL"}, "N": {"i": "2"}}}, {"name": "Func/StatefulPartitionedCall/output_control_node/_361", "op": "NoOp", "input": ["^StatefulPartitionedCall/Assert/AssertGuard/branch_executed/_378", "^StatefulPartitionedCall/Assert_1/AssertGuard/branch_executed/_387", "^StatefulPartitionedCall/Assert_2/AssertGuard/branch_executed/_396", "^StatefulPartitionedCall/Assert_3/AssertGuard/branch_executed/_405", "^StatefulPartitionedCall/ToNormalizedCoordinates/Assert/AssertGuard/branch_executed/_414"]}, {"name": "StatefulPartitionedCall/ToNormalizedCoordinates/truediv_1", "op": "Reciprocal", "input": ["StatefulPartitionedCall/ToNormalizedCoordinates/Cast_1", "^StatefulPartitionedCall/ToNormalizedCoordinates/Assert/AssertGuard/output/_413"], "attr": {"T": {"type": "DT_FLOAT"}}}, {"name": "Identity_1", "op": "Identity", "input": ["StatefulPartitionedCall/add_7", "^Func/StatefulPartitionedCall/output_control_node/_361", "^StatefulPartitionedCall/Assert/AssertGuard/branch_executed/_378", "^StatefulPartitionedCall/Assert_1/AssertGuard/branch_executed/_387", "^StatefulPartitionedCall/Assert_2/AssertGuard/branch_executed/_396", "^StatefulPartitionedCall/Assert_3/AssertGuard/branch_executed/_405", "^StatefulPartitionedCall/ToNormalizedCoordinates/Assert/AssertGuard/branch_executed/_414"], "attr": {"T": {"type": "DT_FLOAT"}}}, {"name": "Identity_2", "op": "Identity", "input": ["StatefulPartitionedCall/TopKV2", "^Func/StatefulPartitionedCall/output_control_node/_361", "^StatefulPartitionedCall/Assert/AssertGuard/branch_executed/_378", "^StatefulPartitionedCall/Assert_1/AssertGuard/branch_executed/_387", "^StatefulPartitionedCall/Assert_2/AssertGuard/branch_executed/_396", "^StatefulPartitionedCall/Assert_3/AssertGuard/branch_executed/_405", "^StatefulPartitionedCall/ToNormalizedCoordinates/Assert/AssertGuard/branch_executed/_414"], "attr": {"T": {"type": "DT_FLOAT"}}}, {"name": "Identity_3", "op": "Identity", "input": ["StatefulPartitionedCall/Cast_5", "^Func/StatefulPartitionedCall/output_control_node/_361", "^StatefulPartitionedCall/Assert/AssertGuard/branch_executed/_378", "^StatefulPartitionedCall/Assert_1/AssertGuard/branch_executed/_387", "^StatefulPartitionedCall/Assert_2/AssertGuard/branch_executed/_396", "^StatefulPartitionedCall/Assert_3/AssertGuard/branch_executed/_405", "^StatefulPartitionedCall/ToNormalizedCoordinates/Assert/AssertGuard/branch_executed/_414"], "attr": {"T": {"type": "DT_FLOAT"}}}, {"name": "StatefulPartitionedCall/ToNormalizedCoordinates/Scale/mul_2", "op": "Mul", "input": ["StatefulPartitionedCall/ToNormalizedCoordinates/truediv_1", "StatefulPartitionedCall/ToNormalizedCoordinates/Scale/split:1"], "attr": {"T": {"type": "DT_FLOAT"}}}, {"name": "StatefulPartitionedCall/ToNormalizedCoordinates/Scale/mul_3", "op": "Mul", "input": ["StatefulPartitionedCall/ToNormalizedCoordinates/truediv_1", "StatefulPartitionedCall/ToNormalizedCoordinates/Scale/split:3"], "attr": {"T": {"type": "DT_FLOAT"}}}, {"name": "StatefulPartitionedCall/ToNormalizedCoordinates/Scale/concat", "op": "ConcatV2", "input": ["StatefulPartitionedCall/ToNormalizedCoordinates/Scale/mul", "StatefulPartitionedCall/ToNormalizedCoordinates/Scale/mul_2", "StatefulPartitionedCall/ToNormalizedCoordinates/Scale/mul_1", "StatefulPartitionedCall/ToNormalizedCoordinates/Scale/mul_3", "StatefulPartitionedCall/ToNormalizedCoordinates/Scale/concat/axis"], "attr": {"T": {"type": "DT_FLOAT"}, "Tidx": {"type": "DT_INT32"}, "N": {"i": "4"}}}, {"name": "StatefulPartitionedCall/ClipToWindow/split", "op": "Split", "input": ["StatefulPartitionedCall/ClipToWindow/split/split_dim", "StatefulPartitionedCall/ToNormalizedCoordinates/Scale/concat"], "attr": {"num_split": {"i": "4"}, "T": {"type": "DT_FLOAT"}}}, {"name": "StatefulPartitionedCall/ClipToWindow/Minimum", "op": "Minimum", "input": ["StatefulPartitionedCall/ClipToWindow/split", "ConstantFolding/StatefulPartitionedCall/ClipToWindow/unstack-folded-2"], "attr": {"T": {"type": "DT_FLOAT"}}}, {"name": "StatefulPartitionedCall/ClipToWindow/Minimum_2", "op": "Minimum", "input": ["StatefulPartitionedCall/ClipToWindow/split:1", "ConstantFolding/StatefulPartitionedCall/ClipToWindow/unstack-folded-3"], "attr": {"T": {"type": "DT_FLOAT"}}}, {"name": "StatefulPartitionedCall/ClipToWindow/Minimum_1", "op": "Minimum", "input": ["StatefulPartitionedCall/ClipToWindow/split:2", "ConstantFolding/StatefulPartitionedCall/ClipToWindow/unstack-folded-2"], "attr": {"T": {"type": "DT_FLOAT"}}}, {"name": "StatefulPartitionedCall/ClipToWindow/Minimum_3", "op": "Minimum", "input": ["StatefulPartitionedCall/ClipToWindow/split:3", "ConstantFolding/StatefulPartitionedCall/ClipToWindow/unstack-folded-3"], "attr": {"T": {"type": "DT_FLOAT"}}}, {"name": "StatefulPartitionedCall/ClipToWindow/Maximum", "op": "Maximum", "input": ["StatefulPartitionedCall/ClipToWindow/Minimum", "ConstantFolding/StatefulPartitionedCall/ClipToWindow/unstack-folded-0"], "attr": {"T": {"type": "DT_FLOAT"}}}, {"name": "StatefulPartitionedCall/ClipToWindow/Maximum_2", "op": "Maximum", "input": ["StatefulPartitionedCall/ClipToWindow/Minimum_2", "ConstantFolding/StatefulPartitionedCall/ClipToWindow/unstack-folded-1"], "attr": {"T": {"type": "DT_FLOAT"}}}, {"name": "StatefulPartitionedCall/ClipToWindow/Maximum_1", "op": "Maximum", "input": ["StatefulPartitionedCall/ClipToWindow/Minimum_1", "ConstantFolding/StatefulPartitionedCall/ClipToWindow/unstack-folded-0"], "attr": {"T": {"type": "DT_FLOAT"}}}, {"name": "StatefulPartitionedCall/ClipToWindow/Maximum_3", "op": "Maximum", "input": ["StatefulPartitionedCall/ClipToWindow/Minimum_3", "ConstantFolding/StatefulPartitionedCall/ClipToWindow/unstack-folded-1"], "attr": {"T": {"type": "DT_FLOAT"}}}, {"name": "StatefulPartitionedCall/ClipToWindow/concat", "op": "ConcatV2", "input": ["StatefulPartitionedCall/ClipToWindow/Maximum", "StatefulPartitionedCall/ClipToWindow/Maximum_2", "StatefulPartitionedCall/ClipToWindow/Maximum_1", "StatefulPartitionedCall/ClipToWindow/Maximum_3", "StatefulPartitionedCall/ClipToWindow/concat/axis"], "attr": {"N": {"i": "4"}, "Tidx": {"type": "DT_INT32"}, "T": {"type": "DT_FLOAT"}}}, {"name": "ConstantFolding/StatefulPartitionedCall/stack_3_const_axis", "op": "Const", "input": ["^StatefulPartitionedCall/ClipToWindow/concat"], "attr": {"value": {"tensor": {"dtype": "DT_INT32", "tensorShape": {}}}, "dtype": {"type": "DT_INT32"}}}, {"name": "StatefulPartitionedCall/stack_3", "op": "ExpandDims", "input": ["StatefulPartitionedCall/ClipToWindow/concat", "ConstantFolding/StatefulPartitionedCall/stack_3_const_axis"], "attr": {"T": {"type": "DT_FLOAT"}, "Tdim": {"type": "DT_INT32"}}}, {"name": "Identity", "op": "Identity", "input": ["StatefulPartitionedCall/stack_3", "^Func/StatefulPartitionedCall/output_control_node/_361", "^StatefulPartitionedCall/Assert/AssertGuard/branch_executed/_378", "^StatefulPartitionedCall/Assert_1/AssertGuard/branch_executed/_387", "^StatefulPartitionedCall/Assert_2/AssertGuard/branch_executed/_396", "^StatefulPartitionedCall/Assert_3/AssertGuard/branch_executed/_405", "^StatefulPartitionedCall/ToNormalizedCoordinates/Assert/AssertGuard/branch_executed/_414"], "attr": {"T": {"type": "DT_FLOAT"}}}], "library": {}, "versions": {"producer": 808}}, "weightsManifest": [{"paths": ["group1-shard1of25.bin", "group1-shard2of25.bin", "group1-shard3of25.bin", "group1-shard4of25.bin", "group1-shard5of25.bin", "group1-shard6of25.bin", "group1-shard7of25.bin", "group1-shard8of25.bin", "group1-shard9of25.bin", "group1-shard10of25.bin", "group1-shard11of25.bin", "group1-shard12of25.bin", "group1-shard13of25.bin", "group1-shard14of25.bin", "group1-shard15of25.bin", "group1-shard16of25.bin", "group1-shard17of25.bin", "group1-shard18of25.bin", "group1-shard19of25.bin", "group1-shard20of25.bin", "group1-shard21of25.bin", "group1-shard22of25.bin", "group1-shard23of25.bin", "group1-shard24of25.bin", "group1-shard25of25.bin"], "weights": [{"name": "ConstantFolding/StatefulPartitionedCall/ClipToWindow/unstack-folded-2", "shape": [], "dtype": "float32"}, {"name": "ConstantFolding/StatefulPartitionedCall/ClipToWindow/unstack-folded-0", "shape": [], "dtype": "float32"}, {"name": "StatefulPartitionedCall/ClipToWindow/split/split_dim", "shape": [], "dtype": "int32"}, {"name": "StatefulPartitionedCall/ToNormalizedCoordinates/Scale/split/split_dim", "shape": [], "dtype": "int32"}, {"name": "StatefulPartitionedCall/ToNormalizedCoordinates/Scale/concat/axis", "shape": [], "dtype": "int32"}, {"name": "ConstantFolding/StatefulPartitionedCall/ClipToWindow/unstack-folded-3", "shape": [], "dtype": "float32"}, {"name": "ConstantFolding/StatefulPartitionedCall/ClipToWindow/unstack-folded-1", "shape": [], "dtype": "float32"}, {"name": "StatefulPartitionedCall/ClipToWindow/concat/axis", "shape": [], "dtype": "int32"}, {"name": "StatefulPartitionedCall/mod_1/y", "shape": [], "dtype": "int32"}, {"name": "StatefulPartitionedCall/add_7/y", "shape": [], "dtype": "float32"}, {"name": "StatefulPartitionedCall/Greater/y", "shape": [], "dtype": "float32"}, {"name": "StatefulPartitionedCall/Sum/reduction_indices", "shape": [], "dtype": "int32"}, {"name": "StatefulPartitionedCall/Assert_3/Condition", "shape": [], "dtype": "bool"}, {"name": "StatefulPartitionedCall/Assert_2/Condition", "shape": [], "dtype": "bool"}, {"name": "StatefulPartitionedCall/Assert_1/Condition", "shape": [], "dtype": "bool"}, {"name": "StatefulPartitionedCall/Assert/AssertGuard/pivot_t/_374", "shape": [], "dtype": "bool"}, {"name": "StatefulPartitionedCall/Assert/Condition", "shape": [], "dtype": "bool"}, {"name": "StatefulPartitionedCall/Scale/Cast", "shape": [], "dtype": "float32"}, {"name": "StatefulPartitionedCall/Scale/Cast_1", "shape": [], "dtype": "float32"}, {"name": "StatefulPartitionedCall/Scale/split/split_dim", "shape": [], "dtype": "int32"}, {"name": "ConstantFolding/StatefulPartitionedCall/truediv_1_recip", "shape": [], "dtype": "float32"}, {"name": "ConstantFolding/StatefulPartitionedCall/truediv_2_recip", "shape": [], "dtype": "float32"}, {"name": "ConstantFolding/StatefulPartitionedCall/truediv_3_recip", "shape": [], "dtype": "float32"}, {"name": "unknown_351", "shape": [3, 3, 64, 256], "dtype": "float32"}, {"name": "unknown_352", "shape": [256], "dtype": "float32"}, {"name": "unknown_353", "shape": [1, 1, 256, 2], "dtype": "float32"}, {"name": "unknown_354", "shape": [2], "dtype": "float32"}, {"name": "StatefulPartitionedCall/Reshape_4/shape", "shape": [3], "dtype": "int32"}, {"name": "StatefulPartitionedCall/GatherV2_1/axis", "shape": [], "dtype": "int32"}, {"name": "unknown_347", "shape": [3, 3, 64, 256], "dtype": "float32"}, {"name": "unknown_348", "shape": [256], "dtype": "float32"}, {"name": "unknown_349", "shape": [1, 1, 256, 2], "dtype": "float32"}, {"name": "unknown_350", "shape": [2], "dtype": "float32"}, {"name": "StatefulPartitionedCall/Reshape_3/shape", "shape": [3], "dtype": "int32"}, {"name": "StatefulPartitionedCall/floordiv/y", "shape": [], "dtype": "int32"}, {"name": "StatefulPartitionedCall/floordiv_1/y", "shape": [], "dtype": "int32"}, {"name": "StatefulPartitionedCall/mul_1/y", "shape": [], "dtype": "int32"}, {"name": "unknown_317", "shape": [1, 1, 2048, 256], "dtype": "float32"}, {"name": "unknown_318", "shape": [256], "dtype": "float32"}, {"name": "StatefulPartitionedCall/center_net_resnet_v1fpn_feature_extractor/functional_3/up_sampling2d/mul", "shape": [2], "dtype": "int32"}, {"name": "unknown_319", "shape": [1, 1, 1024, 256], "dtype": "float32"}, {"name": "unknown_320", "shape": [256], "dtype": "float32"}, {"name": "StatefulPartitionedCall/center_net_resnet_v1fpn_feature_extractor/functional_3/up_sampling2d_1/mul", "shape": [2], "dtype": "int32"}, {"name": "unknown_327", "shape": [1, 1, 512, 128], "dtype": "float32"}, {"name": "unknown_328", "shape": [128], "dtype": "float32"}, {"name": "StatefulPartitionedCall/center_net_resnet_v1fpn_feature_extractor/functional_3/up_sampling2d_2/mul", "shape": [2], "dtype": "int32"}, {"name": "StatefulPartitionedCall/ResizeToRange/Pad/paddings/0/0", "shape": [], "dtype": "int32"}, {"name": "StatefulPartitionedCall/ResizeToRange/sub/x", "shape": [], "dtype": "int32"}, {"name": "StatefulPartitionedCall/ResizeToRange/strided_slice_2/stack", "shape": [1], "dtype": "int32"}, {"name": "StatefulPartitionedCall/ResizeToRange/strided_slice_2/stack_1", "shape": [1], "dtype": "int32"}, {"name": "StatefulPartitionedCall/ResizeToRange/strided_slice_2/stack_2", "shape": [1], "dtype": "int32"}, {"name": "StatefulPartitionedCall/ResizeToRange/Pad/paddings/1/0", "shape": [], "dtype": "int32"}, {"name": "StatefulPartitionedCall/ResizeToRange/sub_1/x", "shape": [], "dtype": "int32"}, {"name": "StatefulPartitionedCall/ResizeToRange/strided_slice_3/stack", "shape": [1], "dtype": "int32"}, {"name": "StatefulPartitionedCall/ResizeToRange/strided_slice_3/stack_1", "shape": [1], "dtype": "int32"}, {"name": "StatefulPartitionedCall/ResizeToRange/strided_slice_3/stack_2", "shape": [1], "dtype": "int32"}, {"name": "StatefulPartitionedCall/ResizeToRange/Pad_1/paddings/0/0", "shape": [], "dtype": "int32"}, {"name": "StatefulPartitionedCall/ResizeToRange/sub_2/x", "shape": [], "dtype": "int32"}, {"name": "StatefulPartitionedCall/ResizeToRange/strided_slice_4/stack", "shape": [1], "dtype": "int32"}, {"name": "StatefulPartitionedCall/ResizeToRange/strided_slice_4/stack_1", "shape": [1], "dtype": "int32"}, {"name": "StatefulPartitionedCall/ResizeToRange/strided_slice_4/stack_2", "shape": [1], "dtype": "int32"}, {"name": "StatefulPartitionedCall/ResizeToRange/Pad_1/paddings/1/0", "shape": [], "dtype": "int32"}, {"name": "StatefulPartitionedCall/ResizeToRange/sub_3/x", "shape": [], "dtype": "int32"}, {"name": "StatefulPartitionedCall/ResizeToRange/strided_slice_5/stack", "shape": [1], "dtype": "int32"}, {"name": "StatefulPartitionedCall/ResizeToRange/strided_slice_5/stack_1", "shape": [1], "dtype": "int32"}, {"name": "StatefulPartitionedCall/ResizeToRange/strided_slice_5/stack_2", "shape": [1], "dtype": "int32"}, {"name": "StatefulPartitionedCall/ResizeToRange/Pad_2/paddings/0/0", "shape": [], "dtype": "int32"}, {"name": "StatefulPartitionedCall/ResizeToRange/sub_4/x", "shape": [], "dtype": "int32"}, {"name": "StatefulPartitionedCall/ResizeToRange/strided_slice_6/stack", "shape": [1], "dtype": "int32"}, {"name": "StatefulPartitionedCall/ResizeToRange/strided_slice_6/stack_1", "shape": [1], "dtype": "int32"}, {"name": "StatefulPartitionedCall/ResizeToRange/strided_slice_6/stack_2", "shape": [1], "dtype": "int32"}, {"name": "StatefulPartitionedCall/ResizeToRange/Pad_2/paddings/1/0", "shape": [], "dtype": "int32"}, {"name": "StatefulPartitionedCall/ResizeToRange/sub_5/x", "shape": [], "dtype": "int32"}, {"name": "StatefulPartitionedCall/ResizeToRange/strided_slice/stack", "shape": [1], "dtype": "int32"}, {"name": "StatefulPartitionedCall/ResizeToRange/strided_slice/stack_1", "shape": [1], "dtype": "int32"}, {"name": "StatefulPartitionedCall/ResizeToRange/strided_slice/stack_2", "shape": [1], "dtype": "int32"}, {"name": "StatefulPartitionedCall/ResizeToRange/strided_slice_1/stack", "shape": [1], "dtype": "int32"}, {"name": "StatefulPartitionedCall/ResizeToRange/strided_slice_1/stack_1", "shape": [1], "dtype": "int32"}, {"name": "StatefulPartitionedCall/ResizeToRange/strided_slice_1/stack_2", "shape": [1], "dtype": "int32"}, {"name": "StatefulPartitionedCall/ResizeToRange/strided_slice_7/stack", "shape": [1], "dtype": "int32"}, {"name": "StatefulPartitionedCall/ResizeToRange/strided_slice_7/stack_1", "shape": [1], "dtype": "int32"}, {"name": "StatefulPartitionedCall/ResizeToRange/strided_slice_7/stack_2", "shape": [1], "dtype": "int32"}, {"name": "StatefulPartitionedCall/strided_slice/stack", "shape": [2], "dtype": "int32"}, {"name": "StatefulPartitionedCall/strided_slice/stack_1", "shape": [2], "dtype": "int32"}, {"name": "StatefulPartitionedCall/strided_slice/stack_2", "shape": [2], "dtype": "int32"}, {"name": "StatefulPartitionedCall/Const_2", "shape": [3], "dtype": "float32"}, {"name": "StatefulPartitionedCall/center_net_resnet_v1fpn_feature_extractor/functional_3/functional_1/conv1_pad/Pad/paddings", "shape": [4, 2], "dtype": "int32"}, {"name": "StatefulPartitionedCall/center_net_resnet_v1fpn_feature_extractor/functional_3/functional_1/pool1_pad/Pad/paddings", "shape": [4, 2], "dtype": "int32"}, {"name": "unknown_335", "shape": [1, 1, 256, 64], "dtype": "float32"}, {"name": "unknown_336", "shape": [64], "dtype": "float32"}, {"name": "unknown_343", "shape": [3, 3, 64, 256], "dtype": "float32"}, {"name": "unknown_344", "shape": [256], "dtype": "float32"}, {"name": "unknown_345", "shape": [1, 1, 256, 90], "dtype": "float32"}, {"name": "unknown_346", "shape": [90], "dtype": "float32"}, {"name": "StatefulPartitionedCall/Less/y", "shape": [], "dtype": "float32"}, {"name": "StatefulPartitionedCall/Reshape_2/shape", "shape": [2], "dtype": "int32"}, {"name": "StatefulPartitionedCall/TopKV2/k", "shape": [], "dtype": "int32"}, {"name": "StatefulPartitionedCall/floordiv_2/y", "shape": [], "dtype": "int32"}, {"name": "StatefulPartitionedCall/mod/y", "shape": [], "dtype": "int32"}, {"name": "StatefulPartitionedCall/GatherV2/axis", "shape": [], "dtype": "int32"}, {"name": "ConstantFolding/StatefulPartitionedCall/truediv_4_recip", "shape": [], "dtype": "float32"}, {"name": "StatefulPartitionedCall/Scale/concat/axis", "shape": [], "dtype": "int32"}, {"name": "StatefulPartitionedCall/ToNormalizedCoordinates/Const", "shape": [2], "dtype": "int32"}, {"name": "StatefulPartitionedCall/ToNormalizedCoordinates/Greater/y", "shape": [], "dtype": "float32"}, {"name": "StatefulPartitionedCall/center_net_resnet_v1fpn_feature_extractor/functional_3/functional_1/conv1_conv/Conv2D_weights", "shape": [7, 7, 3, 64], "dtype": "float32"}, {"name": "StatefulPartitionedCall/center_net_resnet_v1fpn_feature_extractor/functional_3/functional_1/conv1_conv/Conv2D_bn_offset", "shape": [64], "dtype": "float32"}, {"name": "StatefulPartitionedCall/center_net_resnet_v1fpn_feature_extractor/functional_3/functional_1/conv2_block1_0_conv/Conv2D_weights", "shape": [1, 1, 64, 256], "dtype": "float32"}, {"name": "StatefulPartitionedCall/center_net_resnet_v1fpn_feature_extractor/functional_3/functional_1/conv2_block1_0_conv/Conv2D_bn_offset", "shape": [256], "dtype": "float32"}, {"name": "StatefulPartitionedCall/center_net_resnet_v1fpn_feature_extractor/functional_3/functional_1/conv2_block1_1_conv/Conv2D_weights", "shape": [1, 1, 64, 64], "dtype": "float32"}, {"name": "StatefulPartitionedCall/center_net_resnet_v1fpn_feature_extractor/functional_3/functional_1/conv2_block1_1_conv/Conv2D_bn_offset", "shape": [64], "dtype": "float32"}, {"name": "StatefulPartitionedCall/center_net_resnet_v1fpn_feature_extractor/functional_3/functional_1/conv2_block1_2_conv/Conv2D_weights", "shape": [3, 3, 64, 64], "dtype": "float32"}, {"name": "StatefulPartitionedCall/center_net_resnet_v1fpn_feature_extractor/functional_3/functional_1/conv2_block1_2_conv/Conv2D_bn_offset", "shape": [64], "dtype": "float32"}, {"name": "StatefulPartitionedCall/center_net_resnet_v1fpn_feature_extractor/functional_3/functional_1/conv2_block1_3_conv/Conv2D_weights", "shape": [1, 1, 64, 256], "dtype": "float32"}, {"name": "StatefulPartitionedCall/center_net_resnet_v1fpn_feature_extractor/functional_3/functional_1/conv2_block1_3_conv/Conv2D_bn_offset", "shape": [256], "dtype": "float32"}, {"name": "StatefulPartitionedCall/center_net_resnet_v1fpn_feature_extractor/functional_3/functional_1/conv2_block2_1_conv/Conv2D_weights", "shape": [1, 1, 256, 64], "dtype": "float32"}, {"name": "StatefulPartitionedCall/center_net_resnet_v1fpn_feature_extractor/functional_3/functional_1/conv2_block2_1_conv/Conv2D_bn_offset", "shape": [64], "dtype": "float32"}, {"name": "StatefulPartitionedCall/center_net_resnet_v1fpn_feature_extractor/functional_3/functional_1/conv2_block2_2_conv/Conv2D_weights", "shape": [3, 3, 64, 64], "dtype": "float32"}, {"name": "StatefulPartitionedCall/center_net_resnet_v1fpn_feature_extractor/functional_3/functional_1/conv2_block2_2_conv/Conv2D_bn_offset", "shape": [64], "dtype": "float32"}, {"name": "StatefulPartitionedCall/center_net_resnet_v1fpn_feature_extractor/functional_3/functional_1/conv2_block2_3_conv/Conv2D_weights", "shape": [1, 1, 64, 256], "dtype": "float32"}, {"name": "StatefulPartitionedCall/center_net_resnet_v1fpn_feature_extractor/functional_3/functional_1/conv2_block2_3_conv/Conv2D_bn_offset", "shape": [256], "dtype": "float32"}, {"name": "StatefulPartitionedCall/center_net_resnet_v1fpn_feature_extractor/functional_3/functional_1/conv2_block3_1_conv/Conv2D_weights", "shape": [1, 1, 256, 64], "dtype": "float32"}, {"name": "StatefulPartitionedCall/center_net_resnet_v1fpn_feature_extractor/functional_3/functional_1/conv2_block3_1_conv/Conv2D_bn_offset", "shape": [64], "dtype": "float32"}, {"name": "StatefulPartitionedCall/center_net_resnet_v1fpn_feature_extractor/functional_3/functional_1/conv2_block3_2_conv/Conv2D_weights", "shape": [3, 3, 64, 64], "dtype": "float32"}, {"name": "StatefulPartitionedCall/center_net_resnet_v1fpn_feature_extractor/functional_3/functional_1/conv2_block3_2_conv/Conv2D_bn_offset", "shape": [64], "dtype": "float32"}, {"name": "StatefulPartitionedCall/center_net_resnet_v1fpn_feature_extractor/functional_3/functional_1/conv2_block3_3_conv/Conv2D_weights", "shape": [1, 1, 64, 256], "dtype": "float32"}, {"name": "StatefulPartitionedCall/center_net_resnet_v1fpn_feature_extractor/functional_3/functional_1/conv2_block3_3_conv/Conv2D_bn_offset", "shape": [256], "dtype": "float32"}, {"name": "StatefulPartitionedCall/center_net_resnet_v1fpn_feature_extractor/functional_3/functional_1/conv3_block1_0_conv/Conv2D_weights", "shape": [1, 1, 256, 512], "dtype": "float32"}, {"name": "StatefulPartitionedCall/center_net_resnet_v1fpn_feature_extractor/functional_3/functional_1/conv3_block1_0_conv/Conv2D_bn_offset", "shape": [512], "dtype": "float32"}, {"name": "StatefulPartitionedCall/center_net_resnet_v1fpn_feature_extractor/functional_3/functional_1/conv3_block1_1_conv/Conv2D_weights", "shape": [1, 1, 256, 128], "dtype": "float32"}, {"name": "StatefulPartitionedCall/center_net_resnet_v1fpn_feature_extractor/functional_3/functional_1/conv3_block1_1_conv/Conv2D_bn_offset", "shape": [128], "dtype": "float32"}, {"name": "StatefulPartitionedCall/center_net_resnet_v1fpn_feature_extractor/functional_3/functional_1/conv3_block1_2_conv/Conv2D_weights", "shape": [3, 3, 128, 128], "dtype": "float32"}, {"name": "StatefulPartitionedCall/center_net_resnet_v1fpn_feature_extractor/functional_3/functional_1/conv3_block1_2_conv/Conv2D_bn_offset", "shape": [128], "dtype": "float32"}, {"name": "StatefulPartitionedCall/center_net_resnet_v1fpn_feature_extractor/functional_3/functional_1/conv3_block1_3_conv/Conv2D_weights", "shape": [1, 1, 128, 512], "dtype": "float32"}, {"name": "StatefulPartitionedCall/center_net_resnet_v1fpn_feature_extractor/functional_3/functional_1/conv3_block1_3_conv/Conv2D_bn_offset", "shape": [512], "dtype": "float32"}, {"name": "StatefulPartitionedCall/center_net_resnet_v1fpn_feature_extractor/functional_3/functional_1/conv3_block2_1_conv/Conv2D_weights", "shape": [1, 1, 512, 128], "dtype": "float32"}, {"name": "StatefulPartitionedCall/center_net_resnet_v1fpn_feature_extractor/functional_3/functional_1/conv3_block2_1_conv/Conv2D_bn_offset", "shape": [128], "dtype": "float32"}, {"name": "StatefulPartitionedCall/center_net_resnet_v1fpn_feature_extractor/functional_3/functional_1/conv3_block2_2_conv/Conv2D_weights", "shape": [3, 3, 128, 128], "dtype": "float32"}, {"name": "StatefulPartitionedCall/center_net_resnet_v1fpn_feature_extractor/functional_3/functional_1/conv3_block2_2_conv/Conv2D_bn_offset", "shape": [128], "dtype": "float32"}, {"name": "StatefulPartitionedCall/center_net_resnet_v1fpn_feature_extractor/functional_3/functional_1/conv3_block2_3_conv/Conv2D_weights", "shape": [1, 1, 128, 512], "dtype": "float32"}, {"name": "StatefulPartitionedCall/center_net_resnet_v1fpn_feature_extractor/functional_3/functional_1/conv3_block2_3_conv/Conv2D_bn_offset", "shape": [512], "dtype": "float32"}, {"name": "StatefulPartitionedCall/center_net_resnet_v1fpn_feature_extractor/functional_3/functional_1/conv3_block3_1_conv/Conv2D_weights", "shape": [1, 1, 512, 128], "dtype": "float32"}, {"name": "StatefulPartitionedCall/center_net_resnet_v1fpn_feature_extractor/functional_3/functional_1/conv3_block3_1_conv/Conv2D_bn_offset", "shape": [128], "dtype": "float32"}, {"name": "StatefulPartitionedCall/center_net_resnet_v1fpn_feature_extractor/functional_3/functional_1/conv3_block3_2_conv/Conv2D_weights", "shape": [3, 3, 128, 128], "dtype": "float32"}, {"name": "StatefulPartitionedCall/center_net_resnet_v1fpn_feature_extractor/functional_3/functional_1/conv3_block3_2_conv/Conv2D_bn_offset", "shape": [128], "dtype": "float32"}, {"name": "StatefulPartitionedCall/center_net_resnet_v1fpn_feature_extractor/functional_3/functional_1/conv3_block3_3_conv/Conv2D_weights", "shape": [1, 1, 128, 512], "dtype": "float32"}, {"name": "StatefulPartitionedCall/center_net_resnet_v1fpn_feature_extractor/functional_3/functional_1/conv3_block3_3_conv/Conv2D_bn_offset", "shape": [512], "dtype": "float32"}, {"name": "StatefulPartitionedCall/center_net_resnet_v1fpn_feature_extractor/functional_3/functional_1/conv3_block4_1_conv/Conv2D_weights", "shape": [1, 1, 512, 128], "dtype": "float32"}, {"name": "StatefulPartitionedCall/center_net_resnet_v1fpn_feature_extractor/functional_3/functional_1/conv3_block4_1_conv/Conv2D_bn_offset", "shape": [128], "dtype": "float32"}, {"name": "StatefulPartitionedCall/center_net_resnet_v1fpn_feature_extractor/functional_3/functional_1/conv3_block4_2_conv/Conv2D_weights", "shape": [3, 3, 128, 128], "dtype": "float32"}, {"name": "StatefulPartitionedCall/center_net_resnet_v1fpn_feature_extractor/functional_3/functional_1/conv3_block4_2_conv/Conv2D_bn_offset", "shape": [128], "dtype": "float32"}, {"name": "StatefulPartitionedCall/center_net_resnet_v1fpn_feature_extractor/functional_3/functional_1/conv3_block4_3_conv/Conv2D_weights", "shape": [1, 1, 128, 512], "dtype": "float32"}, {"name": "StatefulPartitionedCall/center_net_resnet_v1fpn_feature_extractor/functional_3/functional_1/conv3_block4_3_conv/Conv2D_bn_offset", "shape": [512], "dtype": "float32"}, {"name": "StatefulPartitionedCall/center_net_resnet_v1fpn_feature_extractor/functional_3/functional_1/conv4_block1_0_conv/Conv2D_weights", "shape": [1, 1, 512, 1024], "dtype": "float32"}, {"name": "StatefulPartitionedCall/center_net_resnet_v1fpn_feature_extractor/functional_3/functional_1/conv4_block1_0_conv/Conv2D_bn_offset", "shape": [1024], "dtype": "float32"}, {"name": "StatefulPartitionedCall/center_net_resnet_v1fpn_feature_extractor/functional_3/functional_1/conv4_block1_1_conv/Conv2D_weights", "shape": [1, 1, 512, 256], "dtype": "float32"}, {"name": "StatefulPartitionedCall/center_net_resnet_v1fpn_feature_extractor/functional_3/functional_1/conv4_block1_1_conv/Conv2D_bn_offset", "shape": [256], "dtype": "float32"}, {"name": "StatefulPartitionedCall/center_net_resnet_v1fpn_feature_extractor/functional_3/functional_1/conv4_block1_2_conv/Conv2D_weights", "shape": [3, 3, 256, 256], "dtype": "float32"}, {"name": "StatefulPartitionedCall/center_net_resnet_v1fpn_feature_extractor/functional_3/functional_1/conv4_block1_2_conv/Conv2D_bn_offset", "shape": [256], "dtype": "float32"}, {"name": "StatefulPartitionedCall/center_net_resnet_v1fpn_feature_extractor/functional_3/functional_1/conv4_block1_3_conv/Conv2D_weights", "shape": [1, 1, 256, 1024], "dtype": "float32"}, {"name": "StatefulPartitionedCall/center_net_resnet_v1fpn_feature_extractor/functional_3/functional_1/conv4_block1_3_conv/Conv2D_bn_offset", "shape": [1024], "dtype": "float32"}, {"name": "StatefulPartitionedCall/center_net_resnet_v1fpn_feature_extractor/functional_3/functional_1/conv4_block2_1_conv/Conv2D_weights", "shape": [1, 1, 1024, 256], "dtype": "float32"}, {"name": "StatefulPartitionedCall/center_net_resnet_v1fpn_feature_extractor/functional_3/functional_1/conv4_block2_1_conv/Conv2D_bn_offset", "shape": [256], "dtype": "float32"}, {"name": "StatefulPartitionedCall/center_net_resnet_v1fpn_feature_extractor/functional_3/functional_1/conv4_block2_2_conv/Conv2D_weights", "shape": [3, 3, 256, 256], "dtype": "float32"}, {"name": "StatefulPartitionedCall/center_net_resnet_v1fpn_feature_extractor/functional_3/functional_1/conv4_block2_2_conv/Conv2D_bn_offset", "shape": [256], "dtype": "float32"}, {"name": "StatefulPartitionedCall/center_net_resnet_v1fpn_feature_extractor/functional_3/functional_1/conv4_block2_3_conv/Conv2D_weights", "shape": [1, 1, 256, 1024], "dtype": "float32"}, {"name": "StatefulPartitionedCall/center_net_resnet_v1fpn_feature_extractor/functional_3/functional_1/conv4_block2_3_conv/Conv2D_bn_offset", "shape": [1024], "dtype": "float32"}, {"name": "StatefulPartitionedCall/center_net_resnet_v1fpn_feature_extractor/functional_3/functional_1/conv4_block3_1_conv/Conv2D_weights", "shape": [1, 1, 1024, 256], "dtype": "float32"}, {"name": "StatefulPartitionedCall/center_net_resnet_v1fpn_feature_extractor/functional_3/functional_1/conv4_block3_1_conv/Conv2D_bn_offset", "shape": [256], "dtype": "float32"}, {"name": "StatefulPartitionedCall/center_net_resnet_v1fpn_feature_extractor/functional_3/functional_1/conv4_block3_2_conv/Conv2D_weights", "shape": [3, 3, 256, 256], "dtype": "float32"}, {"name": "StatefulPartitionedCall/center_net_resnet_v1fpn_feature_extractor/functional_3/functional_1/conv4_block3_2_conv/Conv2D_bn_offset", "shape": [256], "dtype": "float32"}, {"name": "StatefulPartitionedCall/center_net_resnet_v1fpn_feature_extractor/functional_3/functional_1/conv4_block3_3_conv/Conv2D_weights", "shape": [1, 1, 256, 1024], "dtype": "float32"}, {"name": "StatefulPartitionedCall/center_net_resnet_v1fpn_feature_extractor/functional_3/functional_1/conv4_block3_3_conv/Conv2D_bn_offset", "shape": [1024], "dtype": "float32"}, {"name": "StatefulPartitionedCall/center_net_resnet_v1fpn_feature_extractor/functional_3/functional_1/conv4_block4_1_conv/Conv2D_weights", "shape": [1, 1, 1024, 256], "dtype": "float32"}, {"name": "StatefulPartitionedCall/center_net_resnet_v1fpn_feature_extractor/functional_3/functional_1/conv4_block4_1_conv/Conv2D_bn_offset", "shape": [256], "dtype": "float32"}, {"name": "StatefulPartitionedCall/center_net_resnet_v1fpn_feature_extractor/functional_3/functional_1/conv4_block4_2_conv/Conv2D_weights", "shape": [3, 3, 256, 256], "dtype": "float32"}, {"name": "StatefulPartitionedCall/center_net_resnet_v1fpn_feature_extractor/functional_3/functional_1/conv4_block4_2_conv/Conv2D_bn_offset", "shape": [256], "dtype": "float32"}, {"name": "StatefulPartitionedCall/center_net_resnet_v1fpn_feature_extractor/functional_3/functional_1/conv4_block4_3_conv/Conv2D_weights", "shape": [1, 1, 256, 1024], "dtype": "float32"}, {"name": "StatefulPartitionedCall/center_net_resnet_v1fpn_feature_extractor/functional_3/functional_1/conv4_block4_3_conv/Conv2D_bn_offset", "shape": [1024], "dtype": "float32"}, {"name": "StatefulPartitionedCall/center_net_resnet_v1fpn_feature_extractor/functional_3/functional_1/conv4_block5_1_conv/Conv2D_weights", "shape": [1, 1, 1024, 256], "dtype": "float32"}, {"name": "StatefulPartitionedCall/center_net_resnet_v1fpn_feature_extractor/functional_3/functional_1/conv4_block5_1_conv/Conv2D_bn_offset", "shape": [256], "dtype": "float32"}, {"name": "StatefulPartitionedCall/center_net_resnet_v1fpn_feature_extractor/functional_3/functional_1/conv4_block5_2_conv/Conv2D_weights", "shape": [3, 3, 256, 256], "dtype": "float32"}, {"name": "StatefulPartitionedCall/center_net_resnet_v1fpn_feature_extractor/functional_3/functional_1/conv4_block5_2_conv/Conv2D_bn_offset", "shape": [256], "dtype": "float32"}, {"name": "StatefulPartitionedCall/center_net_resnet_v1fpn_feature_extractor/functional_3/functional_1/conv4_block5_3_conv/Conv2D_weights", "shape": [1, 1, 256, 1024], "dtype": "float32"}, {"name": "StatefulPartitionedCall/center_net_resnet_v1fpn_feature_extractor/functional_3/functional_1/conv4_block5_3_conv/Conv2D_bn_offset", "shape": [1024], "dtype": "float32"}, {"name": "StatefulPartitionedCall/center_net_resnet_v1fpn_feature_extractor/functional_3/functional_1/conv4_block6_1_conv/Conv2D_weights", "shape": [1, 1, 1024, 256], "dtype": "float32"}, {"name": "StatefulPartitionedCall/center_net_resnet_v1fpn_feature_extractor/functional_3/functional_1/conv4_block6_1_conv/Conv2D_bn_offset", "shape": [256], "dtype": "float32"}, {"name": "StatefulPartitionedCall/center_net_resnet_v1fpn_feature_extractor/functional_3/functional_1/conv4_block6_2_conv/Conv2D_weights", "shape": [3, 3, 256, 256], "dtype": "float32"}, {"name": "StatefulPartitionedCall/center_net_resnet_v1fpn_feature_extractor/functional_3/functional_1/conv4_block6_2_conv/Conv2D_bn_offset", "shape": [256], "dtype": "float32"}, {"name": "StatefulPartitionedCall/center_net_resnet_v1fpn_feature_extractor/functional_3/functional_1/conv4_block6_3_conv/Conv2D_weights", "shape": [1, 1, 256, 1024], "dtype": "float32"}, {"name": "StatefulPartitionedCall/center_net_resnet_v1fpn_feature_extractor/functional_3/functional_1/conv4_block6_3_conv/Conv2D_bn_offset", "shape": [1024], "dtype": "float32"}, {"name": "StatefulPartitionedCall/center_net_resnet_v1fpn_feature_extractor/functional_3/functional_1/conv5_block1_0_conv/Conv2D_weights", "shape": [1, 1, 1024, 2048], "dtype": "float32"}, {"name": "StatefulPartitionedCall/center_net_resnet_v1fpn_feature_extractor/functional_3/functional_1/conv5_block1_0_conv/Conv2D_bn_offset", "shape": [2048], "dtype": "float32"}, {"name": "StatefulPartitionedCall/center_net_resnet_v1fpn_feature_extractor/functional_3/functional_1/conv5_block1_1_conv/Conv2D_weights", "shape": [1, 1, 1024, 512], "dtype": "float32"}, {"name": "StatefulPartitionedCall/center_net_resnet_v1fpn_feature_extractor/functional_3/functional_1/conv5_block1_1_conv/Conv2D_bn_offset", "shape": [512], "dtype": "float32"}, {"name": "StatefulPartitionedCall/center_net_resnet_v1fpn_feature_extractor/functional_3/functional_1/conv5_block1_2_conv/Conv2D_weights", "shape": [3, 3, 512, 512], "dtype": "float32"}, {"name": "StatefulPartitionedCall/center_net_resnet_v1fpn_feature_extractor/functional_3/functional_1/conv5_block1_2_conv/Conv2D_bn_offset", "shape": [512], "dtype": "float32"}, {"name": "StatefulPartitionedCall/center_net_resnet_v1fpn_feature_extractor/functional_3/functional_1/conv5_block1_3_conv/Conv2D_weights", "shape": [1, 1, 512, 2048], "dtype": "float32"}, {"name": "StatefulPartitionedCall/center_net_resnet_v1fpn_feature_extractor/functional_3/functional_1/conv5_block1_3_conv/Conv2D_bn_offset", "shape": [2048], "dtype": "float32"}, {"name": "StatefulPartitionedCall/center_net_resnet_v1fpn_feature_extractor/functional_3/functional_1/conv5_block2_1_conv/Conv2D_weights", "shape": [1, 1, 2048, 512], "dtype": "float32"}, {"name": "StatefulPartitionedCall/center_net_resnet_v1fpn_feature_extractor/functional_3/functional_1/conv5_block2_1_conv/Conv2D_bn_offset", "shape": [512], "dtype": "float32"}, {"name": "StatefulPartitionedCall/center_net_resnet_v1fpn_feature_extractor/functional_3/functional_1/conv5_block2_2_conv/Conv2D_weights", "shape": [3, 3, 512, 512], "dtype": "float32"}, {"name": "StatefulPartitionedCall/center_net_resnet_v1fpn_feature_extractor/functional_3/functional_1/conv5_block2_2_conv/Conv2D_bn_offset", "shape": [512], "dtype": "float32"}, {"name": "StatefulPartitionedCall/center_net_resnet_v1fpn_feature_extractor/functional_3/functional_1/conv5_block2_3_conv/Conv2D_weights", "shape": [1, 1, 512, 2048], "dtype": "float32"}, {"name": "StatefulPartitionedCall/center_net_resnet_v1fpn_feature_extractor/functional_3/functional_1/conv5_block2_3_conv/Conv2D_bn_offset", "shape": [2048], "dtype": "float32"}, {"name": "StatefulPartitionedCall/center_net_resnet_v1fpn_feature_extractor/functional_3/functional_1/conv5_block3_1_conv/Conv2D_weights", "shape": [1, 1, 2048, 512], "dtype": "float32"}, {"name": "StatefulPartitionedCall/center_net_resnet_v1fpn_feature_extractor/functional_3/functional_1/conv5_block3_1_conv/Conv2D_bn_offset", "shape": [512], "dtype": "float32"}, {"name": "StatefulPartitionedCall/center_net_resnet_v1fpn_feature_extractor/functional_3/functional_1/conv5_block3_2_conv/Conv2D_weights", "shape": [3, 3, 512, 512], "dtype": "float32"}, {"name": "StatefulPartitionedCall/center_net_resnet_v1fpn_feature_extractor/functional_3/functional_1/conv5_block3_2_conv/Conv2D_bn_offset", "shape": [512], "dtype": "float32"}, {"name": "StatefulPartitionedCall/center_net_resnet_v1fpn_feature_extractor/functional_3/functional_1/conv5_block3_3_conv/Conv2D_weights", "shape": [1, 1, 512, 2048], "dtype": "float32"}, {"name": "StatefulPartitionedCall/center_net_resnet_v1fpn_feature_extractor/functional_3/functional_1/conv5_block3_3_conv/Conv2D_bn_offset", "shape": [2048], "dtype": "float32"}, {"name": "StatefulPartitionedCall/center_net_resnet_v1fpn_feature_extractor/functional_3/conv2d_2/Conv2D_weights", "shape": [3, 3, 256, 128], "dtype": "float32"}, {"name": "StatefulPartitionedCall/center_net_resnet_v1fpn_feature_extractor/functional_3/conv2d_2/Conv2D_bn_offset", "shape": [128], "dtype": "float32"}, {"name": "StatefulPartitionedCall/center_net_resnet_v1fpn_feature_extractor/functional_3/conv2d_4/Conv2D_weights", "shape": [3, 3, 128, 64], "dtype": "float32"}, {"name": "StatefulPartitionedCall/center_net_resnet_v1fpn_feature_extractor/functional_3/conv2d_4/Conv2D_bn_offset", "shape": [64], "dtype": "float32"}, {"name": "StatefulPartitionedCall/center_net_resnet_v1fpn_feature_extractor/functional_3/conv2d_6/Conv2D_weights", "shape": [3, 3, 64, 64], "dtype": "float32"}, {"name": "StatefulPartitionedCall/center_net_resnet_v1fpn_feature_extractor/functional_3/conv2d_6/Conv2D_bn_offset", "shape": [64], "dtype": "float32"}, {"name": "StatefulPartitionedCall/ResizeToRange/cond/else/_363/ResizeToRange/cond/resize/Cast", "shape": [], "dtype": "float32"}, {"name": "StatefulPartitionedCall/ResizeToRange/cond/else/_363/ResizeToRange/cond/resize/Cast_2", "shape": [], "dtype": "float32"}, {"name": "StatefulPartitionedCall/ResizeToRange/cond/else/_363/ResizeToRange/cond/resize/ExpandDims/dim", "shape": [], "dtype": "int32"}, {"name": "StatefulPartitionedCall/ResizeToRange/cond/then/_362/ResizeToRange/cond/resize/Cast", "shape": [], "dtype": "float32"}, {"name": "StatefulPartitionedCall/ResizeToRange/cond/then/_362/ResizeToRange/cond/resize/Cast_2", "shape": [], "dtype": "float32"}, {"name": "StatefulPartitionedCall/ResizeToRange/cond/then/_362/ResizeToRange/cond/resize/ExpandDims/dim", "shape": [], "dtype": "int32"}, {"name": "ConstantFolding/StatefulPartitionedCall/stack_1_const_axis", "shape": [], "dtype": "int32"}, {"name": "ConstantFolding/StatefulPartitionedCall/stack_const_axis", "shape": [], "dtype": "int32"}, {"name": "StatefulPartitionedCall/Assert_1/AssertGuard/pivot_t/_383", "shape": [], "dtype": "bool"}, {"name": "StatefulPartitionedCall/Assert_2/AssertGuard/pivot_t/_392", "shape": [], "dtype": "bool"}, {"name": "StatefulPartitionedCall/Assert_3/AssertGuard/pivot_t/_401", "shape": [], "dtype": "bool"}, {"name": "StatefulPartitionedCall/ToNormalizedCoordinates/Assert/AssertGuard/pivot_f/_409", "shape": [], "dtype": "bool"}, {"name": "StatefulPartitionedCall/ToNormalizedCoordinates/Assert/AssertGuard/pivot_t/_410", "shape": [], "dtype": "bool"}, {"name": "Func/StatefulPartitionedCall/ToNormalizedCoordinates/Assert/AssertGuard/then/_406/output/_466", "shape": [], "dtype": "bool"}, {"name": "Func/StatefulPartitionedCall/ToNormalizedCoordinates/Assert/AssertGuard/else/_407/output/_471", "shape": [], "dtype": "bool"}, {"name": "ConstantFolding/StatefulPartitionedCall/stack_3_const_axis", "shape": [], "dtype": "int32"}]}]}